weights/military_civil_clf.pt (torch, 709461 bytes, 152 tensors)

backbone.model.0.conv.0.conv.weight f4 [12, 3, 3, 3]
000000 04 7e ca bc 44 d2 17 3e cf 1b 36 3e 83 43 be 3c
       -0.024718292 0.14826304 0.17784046 0.023225551
000010 be 87 23 be 4b 79 b1 bd 92 55 3d be 64 76 17 3e
       -0.1596975 -0.08665713 -0.18489674 0.14791256
000020 2b 3d 94 bd da bc e2 3d 0e 64 02 3e e1 2f b9 bc
       -0.07238229 0.11071177 0.1273348 -0.022605838
000030 43 76 83 3d 5d 8a f6 3d 9a 75 6d ba 1b 4f ab 3d
       0.06419041 0.120381095 -0.00090583565 0.083646975
000040 40 c1 8a bd 9c 6d 2e be 96 99 8c 3d c8 b2 28 3e
       -0.06775141 -0.17034 0.06865232 0.1647445
000050 27 d4 4b bd 96 e9 89 bd 0c 9c fd bd 7c ed a7 bd
       -0.04976287 -0.06734006 -0.12383279 -0.081995934
000060 90 07 ab 3d 00 54 1e be 8b 92 35 3e 9d fd 18 3e
       0.08351052 -0.15461731 0.17731683 0.14940496
000070 da e9 10 3c c8 31 49 bd 82 29 cf bd 17 b4 83 3d
       0.008844817 -0.04911974 -0.10115339 0.06430834
000080 bb 75 28 be 23 02 9c bc ad 96 b2 3c 0e 64 d0 38
       -0.1645116 -0.019043988 0.021800363 9.9368495e-05
000090 94 27 93 bd 4a c0 7e 3d 97 21 a6 bd b2 a9 03 be
       -0.07185283 0.0621951 -0.081118755 -0.12857702
0000a0 fa 1d 2c 3b 5c 04 cd bc 6d 24 25 be 2c 4f ab bb
       0.0026262985 -0.025026493 -0.16127177 -0.005227944
0000b0 8d 5d 22 bc 48 6b 09 bd af 6d 24 3d 8d 4a 95 3d
       -0.00991 -0.033549577 0.040143665 0.0728961
0000c0 f6 52 31 be f7 b2 ca bd 0b b9 ce 3d 1e bd 66 3d
       -0.17316803 -0.09897416 0.10093888 0.0563327
0000d0 73 e7 f7 3c fb fc ab bd 29 b9 9d 3d 3c 4e 35 be
       0.03026173 -0.083978616 0.07701332 -0.17705625
0000e0 e2 80 8f 3d 43 41 12 be b2 ec 1d be b8 2e 29 be
       0.07007004 -0.14282708 -0.15422323 -0.16521728
0000f0 fb 00 08 be 06 2c 13 be 78 f6 ba bd ff 78 33 3d
       -0.13281624 -0.14372262 -0.091290414 0.043816563
000100 c3 50 38 3e 0a d3 12 be dd be 5a 3d e0 71 35 3e
       0.17999558 -0.14338318 0.053404678 0.17719221
000110 7d 1a 0d be 2a 00 92 bd 3c 2a a7 3d 65 d2 02 bd
       -0.13779636 -0.071289375 0.081623524 -0.03193893
000120 a1 a5 93 bd f8 7f 0a bd 35 e4 84 bd 46 4f 99 bd
       -0.072093256 -0.033813447 -0.064888395 -0.07485823
000130 a0 a1 91 bc 09 22 a3 3d 1f 0b 8d bd 91 35 00 3e
       -0.017777264 0.07965476 -0.06886887 0.12520434
000140 da d4 1c 3e 1c c1 ed 3d a2 f1 31 3e f2 20 ec bd
       0.15315571 0.11609098 0.17377332 -0.11529721
000150 79 d4 ea 3d cb fa 6a 3c 1c 42 61 bd a8 0e 22 be
       0.11466307 0.01434202 -0.054994687 -0.15825903
000160 50 00 c9 bd 14 42 b1 bc f5 d8 e7 bd 6a a2 a6 3d
       -0.09814513 -0.021637954 -0.11320678 0.08136447
000170 cf 30 fb 3d a4 ba 3f 3e e4 12 de 3d 73 09 3f 3e
       0.12265169 0.18723541 0.10843447 0.18655948
000180 0e 11 d8 bd 2d fa bc bd 8a 1b a7 bc d6 c6 5e bb
       -0.10550128 -0.09227405 -0.020398874 -0.0033993027
000190 29 41 82 bd 9c cc d0 bd 20 6d 38 be f8 9b 35 3e
       -0.063600846 -0.10195276 -0.18010378 0.17735279
0001a0 3a 10 1c 3e 9d 1c e2 bd a1 fd b6 bd db c4 4b 3d
       0.15240565 -0.11040614 -0.089350946 0.049748283
0001b0 85 46 72 3c 03 73 33 bd b2 80 51 3d d1 34 3b be
       0.014787321 -0.043810856 0.051148124 -0.18281867
0001c0 d5 d7 37 3e 1f 21 3d be e6 3b f5 3d a9 9b f7 bd
       0.17953427 -0.18469666 0.11974315 -0.12090237
0001d0 78 22 f1 3d 9a 86 e2 bd c4 01 35 be f6 57 26 3d
       0.117741525 -0.110608295 -0.17676455 0.04061123
0001e0 62 4a 05 bd 9e 47 8d bd b2 4a 19 3d 4e 35 30 bd
       -0.03254164 -0.068984255 0.03742475 -0.043019585
0001f0 d8 d1 39 bb 97 1b 8e 3d 54 6f b8 3c 7b ca 00 3e
       -0.0028353836 0.06938856 0.022514023 0.1257724
000200 b9 e2 ad bb 46 37 33 bc ce 70 23 3e d5 26 0c 3e
       -0.0053065685 -0.010938471 0.15961 0.13686688
000210 b6 d4 d5 bd 51 aa 82 3d 16 e7 c5 3d e5 3c 36 3d
       -0.10440962 0.063801415 0.09663217 0.044491667
000220 3b ed 38 be 6c a6 57 bc 99 87 47 be c9 03 26 be
       -0.18059246 -0.013162237 -0.1948532 -0.16212381
000230 4a e5 08 be a3 ac d2 bd 48 b4 37 be 9b 5e 20 be
       -0.13368717 -0.10286834 -0.17939866 -0.15661089
000240 71 fe 04 3e db 43 2a 3e 3b a1 e6 bd 79 67 a4 bd
       0.12987687 0.16627447 -0.11261221 -0.08027548
000250 16 2f ce 3d 27 9d e3 3b 05 d5 95 3d cb 92 bc 3d
       0.10067575 0.0069462243 0.07316021 0.09207686
000260 2b 6b a0 3c b9 5c 02 be 03 b7 2a 3e 1c 40 1a 3e
       0.019582352 -0.12730683 0.16671376 0.15063518
000270 a6 bb eb bd 28 d5 2c 3e 3f 7a 3e 3c 79 cb 17 3e
       -0.115104005 0.16878188 0.011625825 0.14823712
000280 54 ef 9b 3d 73 90 ca 3a 1a 0c 24 3c 48 dc 5a bd
       0.076140076 0.0015454426 0.010012651 -0.053432733
000290 70 2c 15 be 67 8b ec 3b ae 81 01 3e f5 88 94 3d
       -0.14567733 0.0072187665 0.12647125 0.07252685
0002a0 ce 3b 4e bd 89 ad 08 bd f5 39 05 3e f6 6f a1 bc
       -0.050350003 -0.03336862 0.1301039 -0.019706707
0002b0 a7 0c 72 bd 31 1b b6 bd be c2 0c be 8b 50 a9 bd
       -0.059094097 -0.08891905 -0.13746163 -0.082673155
0002c0 55 62 1d be 69 a4 0d be 43 14 42 be 93 a1 36 3e
       -0.15369542 -0.13832249 -0.18953042 0.17835073
0002d0 b6 48 ae bd ad 27 a3 bb 03 34 84 3d bf 28 20 3d
       -0.08509962 -0.004979095 0.06455233 0.03910136
0002e0 87 14 3a 3e ba c4 1c be 5d 90 b6 ba 1f 15 09 be
       0.18171893 -0.1530942 -0.0013928522 -0.13386963
0002f0 7d 03 f2 3d e9 76 2f be 5f 9d f9 bd bc 52 17 3e
       0.118170716 -0.17135204 -0.12188219 0.14777654
000300 49 5d ec bc 96 0e ea bc f4 2b 07 be 23 20 00 3e
       -0.028853076 -0.028571408 -0.1320036 0.12512259
000310 05 25 3f 3e df 23 b8 bc e3 a7 52 bd ad 35 26 be
       0.18666466 -0.022478042 -0.05142964 -0.16231413
000320 8b c0 18 3d 31 16 06 be fa d9 36 3e 4a 6e 59 bd
       0.037293 -0.13094403 0.17856589 -0.053083695
000330 2b 0a 2d be c4 51 f1 3d 1b 2e ca 3d dd 9b a4 3d
       -0.1689841 0.11783174 0.09872075 0.08037541
000340 57 67 cd bc 80 f7 82 bc e0 98 9a bd a2 99 f5 bd
       -0.02507369 -0.015987158 -0.0754869 -0.11992194
000350 3e e7 08 3e de 9f d2 bd 6d 15 52 3c e5 ac ab bd
       0.13369462 -0.102843985 0.012822491 -0.083825864
000360 e2 49 3f 3e e8 7c 32 3e de 66 b2 3d 58 4f 82 bc
       0.18680528 0.1743046 0.087110266 -0.015906975
000370 96 aa 22 3e 4e 20 bf bd bd 91 0b bc 6c 6f 2c be
       0.15885386 -0.093323335 -0.008518633 -0.16839379
000380 3b 2d 26 be 3a a3 6a 3d 5f a7 fb 3d 00 cb 39 be
       -0.16228192 0.05728457 0.12287783 -0.18143845
000390 4f 2a 19 be f9 73 ac 3b e1 f2 0e 3e 1e 9c 37 be
       -0.14957546 0.0052628485 0.13959838 -0.17930648
0003a0 09 bd 32 3e 53 df 1c be 09 40 e5 bd ee ef ad 3d
       0.17454924 -0.15319566 -0.11193854 0.084930286
0003b0 8a 72 aa bd 94 0f 3b bd b8 30 e7 bd 23 27 46 bd
       -0.08322628 -0.045669153 -0.11288589 -0.048377167
0003c0 3c ee 31 be d1 7d ca 3d a1 e8 5b 3c 96 0f 89 bd
       -0.17376035 0.09887279 0.013422162 -0.06692426
0003d0 ba 90 ba bc c9 07 31 be 13 6e 1f bd bf fd 0a bd
       -0.02277409 -0.17288126 -0.038923334 -0.033933397
0003e0 3c 7b ac 3d e8 50 33 3e 52 34 96 3d b1 59 9f bd
       0.084219426 0.17511332 0.07334198 -0.07780779
0003f0 31 e3 ef 3c 9f b1 54 3d f6 df 90 bb 57 74 02 3e
       0.029283138 0.051927205 -0.0044212295 0.12739693

backbone.model.0.conv.0.bn.weight f4 [12]
000000 43 4d 7b 3f cc 52 7b 3f ab 25 7b 3f 3c ce 7a 3f
       0.9816477 0.98173213 0.9810435 0.9797094
000010 2f 41 7c 3f f4 1e 7c 3f 87 46 7c 3f 98 f1 7b 3f
       0.9853696 0.9848473 0.98545116 0.9841552
000020 9e 78 7a 3f c3 93 7b 3f a8 87 7b 3f 5e c9 7a 3f
       0.978403 0.9827234 0.9825387 0.9796351

backbone.model.0.conv.0.bn.bias f4 [12]
000000 f0 6f b2 ba 2b aa 4b b9 18 39 b2 3b 7e 1b 36 3a
       -0.0013613682 -0.00019422981 0.005438935 0.00069468457
000010 1d fa ab 3b f7 6a 72 3b f4 68 07 3b 86 eb 74 3b
       0.0052483217 0.0036990026 0.0020661922 0.0037371828
000020 1d 41 1e bc 7d 46 a4 bb 4c 65 d6 bb 4a 95 27 3b
       -0.009659079 -0.0050132857 -0.0065428372 0.002557116

backbone.model.0.conv.0.bn.running_mean f4 [12]
000000 39 b6 b5 3d 02 00 7a be a3 db 87 be 01 fa 85 3d
       0.08872647 -0.24414065 -0.26534757 0.06541825
000010 1b a4 91 3d e1 1d 7d bd 8c 5d 7a be 43 2c 1a be
       0.07111379 -0.061796073 -0.24449748 -0.15055947
000020 73 d4 28 be 89 64 2f 3c 02 d1 28 bd a9 46 8a be
       -0.16487293 0.010705122 -0.04121495 -0.27007034

backbone.model.0.conv.0.bn.running_var f4 [12]
000000 a3 3a ce 3b 78 1c 2c 3c 62 39 52 3c 7f ed a8 3b
       0.006293611 0.010504834 0.012831064 0.005155265
000010 4b ad 6a 3b a8 38 cd 3b 11 b7 39 3c 00 1a e6 3b
       0.0035808857 0.0062628575 0.01133515 0.0070221424
000020 44 a2 0c 3c 00 00 8b 3a 6d 8e 51 3b 09 6c 64 3c
       0.008583609 0.0010604858 0.0031975762 0.013941773

backbone.model.0.conv.2.conv.weight f4 [16, 12, 1, 1]
000000 ec 4a a3 bd 7d fd 49 3e 34 ad 73 be 93 30 d9 3d
       -0.079732746 0.19725604 -0.2379654 0.10604968
000010 c2 d2 1a 3e 6e 9e 0a 3e 24 62 d9 3d de 78 44 3c
       0.1511946 0.13536999 0.10614422 0.011991708
000020 4e 81 5e 3d 56 78 27 3e 2b 5c d6 3d ca 66 be 3d
       0.054322533 0.16354498 0.104667984 0.09296949
000030 4f 71 8c be 27 f6 8f 3e 78 ef f1 bd aa ad a1 bd
       -0.27430198 0.28117487 -0.11813253 -0.07894452
000040 9a f0 24 3e 05 cc d9 3c ae b0 05 be c5 69 08 3c
       0.16107407 0.026586542 -0.13055679 0.008325999
000050 87 72 d1 bd 26 73 73 be 1b fd 2d 3e ad ae 85 be
       -0.102269225 -0.23774394 0.16991083 -0.2610983
000060 48 af dd bd 59 d6 e4 3c 52 e8 86 bc cb 77 04 be
       -0.10824448 0.02793424 -0.0164682 -0.12936322
000070 b9 8e 37 be 56 0e 8b 3e 29 93 5e 3d cf fb f8 bd
       -0.17925538 0.27159375 0.05433956 -0.12157404
000080 16 c1 3f 3e 3d e3 11 3e 63 83 05 be b5 94 be bd
       0.18726 0.14246841 -0.13038401 -0.09305707
000090 14 b4 83 bd e6 f2 7b bd dd 5f 41 be 9c ba 1e 3e
       -0.064308316 -0.061510943 -0.18884225 0.15500873
0000a0 a9 d2 57 3d f2 2d cd 3d e0 48 09 be d4 c9 b5 3d
       0.052691136 0.10018529 -0.13406706 0.08876386
0000b0 89 d5 55 bd 6d 33 17 3d 78 0e 8b bb 29 de 29 bb
       -0.052205596 0.036914278 -0.004243668 -0.0025919771
0000c0 8b c7 e6 bd 2b 7c 06 bc e5 20 21 3e e7 d8 ee bd
       -0.112685286 -0.008208315 0.15735205 -0.116624646
0000d0 3e 88 02 bd 61 35 5d be b6 85 49 3d be e0 12 3e
       -0.031868212 -0.21602394 0.049199782 0.14343545
0000e0 d5 2b 53 3e 1d 60 ce bd e0 0f 27 be e1 73 b4 3d
       0.2062219 -0.10076926 -0.1631465 0.08811165
0000f0 60 28 53 be 7f a0 e6 3d 9f e1 e6 bd c8 54 15 be
       -0.2062087 0.11261081 -0.112735026 -0.14583123
000100 25 9f 22 3e 4f cc 1b bc e0 a9 69 be ef 82 b8 bc
       0.15881021 -0.00950916 -0.22818708 -0.022523372
000110 15 9e 6d 3e c1 09 c9 3d 61 4a 11 3e ea 29 76 3e
       0.23204835 0.098163135 0.1418853 0.24039426
000120 7d ca e7 bd a7 84 73 be 13 0d 53 be 74 86 cc 3d
       -0.113179184 -0.23781072 -0.20610456 0.099865824
000130 10 67 cd bd c3 55 c9 bd f2 ab 70 be 8b 41 23 be
       -0.10029423 -0.09830811 -0.23503092 -0.15942971
000140 b1 db c3 bd f7 65 79 3d 7a 51 e2 bd f9 19 77 3d
       -0.09563387 0.060888257 -0.11050697 0.060327504
000150 b6 49 70 be 73 a7 38 3e d7 97 8e be b1 ed 2f be
       -0.23465618 0.18032627 -0.2785022 -0.17180516
000160 e0 02 20 3e 17 8a 44 bd 59 fc 06 be c8 87 31 bd
       0.15626097 -0.047983255 -0.131822 -0.04334238
000170 2f 2b 5d 3e 26 40 8c 3d 4f cc 2a 3e c4 d0 47 be
       0.21598504 0.06848173 0.166795 -0.19513232
000180 df f2 73 3c 8b ff 3b 3e cd 67 bc bd 1b b9 b9 bd
       0.014889448 0.183592 -0.09199486 -0.09068509
000190 b7 c6 78 bd 95 68 ce 3d f8 1c 08 be fd 2e 91 be
       -0.060736384 0.10078541 -0.132923 -0.28356162
0001a0 12 aa 82 3e 6a 34 e3 3d 16 45 1b be cb a7 d6 bb
       0.25520378 0.110939816 -0.15163073 -0.006550764
0001b0 8d 99 78 3e ea 92 01 bd 1c b1 f9 3c 0f 39 c9 3d
       0.24277325 -0.03163425 0.03047996 0.09825336
0001c0 18 8d 21 be ea 8c a9 3d 6d 6b 08 bb 70 db 09 bd
       -0.15776479 0.0827883 -0.0020815984 -0.033656538
0001d0 a0 ef 5f bd 7c fc 63 3e b1 e0 f2 bd 39 7e fd bc
       -0.054671884 0.22264284 -0.11859263 -0.030943977
0001e0 5f 91 22 3e d5 32 b1 3d 51 61 52 3d 18 5f 21 3d
       0.15875767 0.086522736 0.05136234 0.03939733
0001f0 f8 bc 09 3e 97 d7 6c 3e 12 af f3 bd ad b9 56 3e
       0.13450992 0.23129116 -0.118986264 0.20969267
000200 8f 6b 17 be 2f 86 89 3e 11 fe 5c 3e 64 67 b1 3d
       -0.14787124 0.26860186 0.21581294 0.08662298
000210 53 51 b1 3c 0d 07 4c 3e bd 6d 34 bc a5 91 24 be
       0.021645224 0.19924565 -0.011012492 -0.16071184
000220 16 b3 eb bd a4 75 cf 3d 0e e6 96 3d 15 92 3b 3c
       -0.11508767 0.1012986 0.07368098 0.011448403
000230 52 ab 87 be c7 8f b5 bd 84 99 6b 3e 0e 01 58 3d
       -0.26497895 -0.08865314 0.2300778 0.05273538
000240 4a dc 66 3e 9c 9e 33 be ce 96 2d 3c 01 c1 2a 3e
       0.22544971 -0.17540973 0.010595037 0.16675188
000250 a8 6e de bd 7f cd bd 39 f8 f5 81 3e 52 30 1b 3d
       -0.1086095 0.00036201996 0.25382972 0.03788788
000260 8c b6 66 bd 7e b6 1a 3e ba 3f d5 bd 32 e9 a8 bd
       -0.056326434 0.15108678 -0.104125455 -0.082476035
000270 0f f7 c5 bd be 29 ac 3d 49 0a 8c 3e 63 94 d9 39
       -0.09666263 0.08406399 0.27351597 0.00041500022
000280 0d c7 db 3d 3f 96 4c be 6b 29 4b be f2 c2 86 3c
       0.10731325 -0.1997919 -0.19840018 0.016450379
000290 c7 d5 0a 3e 1f da 46 3e 4c 96 7c be 3d 6a e7 3d
       0.13558112 0.19419144 -0.24666709 0.1129956
0002a0 b6 d7 98 bd 5f 5a 0f be 7d 18 1e bd 28 fc 91 be
       -0.074630186 -0.13999318 -0.038597573 -0.28512692
0002b0 71 c0 33 3e 6c f5 22 3e 74 62 4a 3e 6c 42 c1 3d
       0.1755388 0.15913934 0.1976412 0.09436497
0002c0 c8 71 18 be ea a0 59 3e f1 13 29 bd 99 a8 cc bd
       -0.14887154 0.2125279 -0.041278783 -0.09993095
0002d0 ae 12 7e be f1 65 44 be fc 40 4f 3e b8 8f 31 3d
       -0.24811813 -0.19179513 0.20239633 0.04334995
0002e0 a7 d3 5c 3e 88 76 a9 3d da 22 ee 3d c5 37 16 bd
       0.21565114 0.08274561 0.11627741 -0.03667428
0002f0 0e 54 88 be 70 fb 8e be ff b0 94 3d 42 c1 a9 bd
       -0.2662663 -0.27926207 0.07260322 -0.08288814

backbone.model.0.conv.2.bn.weight f4 [16]
000000 c4 bc 79 3f 8e 57 7a 3f 73 66 7a 3f a4 2f 7b 3f
       0.9755366 0.9778985 0.97812575 0.9811957
000010 db a1 7a 3f 15 a2 7a 3f 1a 6c 7a 3f 47 b0 79 3f
       0.9790322 0.9790357 0.978212 0.975346
000020 f4 c8 7a 3f 58 dc 79 3f 58 14 7b 3f 5a a5 7a 3f
       0.9796288 0.9760184 0.9807792 0.97908556
000030 78 d7 7a 3f 01 e3 79 3f 9a 8a 7a 3f f8 1c 7a 3f
       0.9798503 0.97612005 0.9786774 0.9770045

backbone.model.0.conv.2.bn.bias f4 [16]
000000 4a 9e 1d 3c e3 06 0a 3c b3 36 8f ba 42 bc bc ba
       0.009620259 0.0084244935 -0.0010926336 -0.0014399367
000010 b5 b0 73 bb 46 5d c6 bb 9d b9 8e 3c df 96 00 3c
       -0.0037184183 -0.0060535995 0.017422492 0.0078484705
000020 ac 1a d2 3b 9e dd e6 ba c3 42 87 3b 47 a8 01 3c
       0.006411871 -0.0017613654 0.0041278317 0.007913656
000030 68 a0 67 3a 4c 4e 46 bb d2 82 04 3b be eb 8c 3b
       0.0008835853 -0.003025907 0.0020219577 0.0043005636

backbone.model.0.conv.2.bn.running_mean f4 [16]
000000 3a 6e 1f 3e 9f a0 d2 bd 89 19 bb bc 64 b9 c4 bc
       0.15569392 -0.10284542 -0.022839325 -0.024014182
000010 d2 82 a0 bb f6 99 4b 3d 23 6a 79 be 17 9a 90 bd
       -0.0048984075 0.049707375 -0.24356894 -0.0706064
000020 c9 ce 1a bd 7a 68 14 3d 31 bd 6d 3e 5f 5c 95 3c
       -0.037794862 0.03623245 0.23216702 0.018232523
000030 8c 53 62 3d 0b 3b 17 3d 6b 71 2b bb c9 f8 78 bd
       0.055255458 0.036921542 -0.0026160132 -0.060784135

backbone.model.0.conv.2.bn.running_var f4 [16]
000000 12 6b a0 3d be 27 c4 3d 8c 5a 5a 3d 6a e4 69 3d
       0.07832922 0.09577893 0.05330901 0.0571026
000010 53 4c 08 3e 47 65 75 3d de 87 a6 3e f0 5a 4d 3d
       0.13310365 0.05991104 0.32525533 0.050135553
000020 a2 62 74 3d e5 cd 9d 3d 97 6c 1a 3e 6f 4a e8 3d
       0.059664376 0.07705287 0.15080486 0.11342322
000030 e8 30 87 3d 6b f9 a6 3d 49 e8 05 3e e7 dd ea 3d
       0.06601125 0.081530415 0.13076891 0.11468106

backbone.model.0.downsampling.conv.weight f4 [16, 3, 1, 1]
000000 a4 33 09 3f fb 7c ac be 10 31 5f be 91 08 f4 3e
       0.5359442 -0.33689103 -0.2179606 0.47662786
000010 e9 b8 64 bd 08 f5 8e bd da 52 c1 be 92 68 12 be
       -0.055840407 -0.0698033 -0.37758523 -0.14297703
000020 e2 0b 36 3e 1b 63 ca be 31 60 e7 3d 17 ac 98 3d
       0.1777797 -0.39528736 0.11297644 0.074546985
000030 34 72 92 3e 82 72 09 3f 30 97 f6 be 90 5a f7 3e
       0.28602755 0.5369035 -0.48162222 0.4831128
000040 23 e8 04 bf ea 41 93 3e bb 7a 01 bf fd b7 05 3f
       -0.5191671 0.28761226 -0.50577897 0.5223387
000050 06 0f 46 be d8 83 8c bd 7a 1c f8 bd 5c 69 bd 3e
       -0.19341668 -0.06861085 -0.121148065 0.36994445
000060 3a eb cf be 03 79 91 be 54 fd cf 3e ff 37 11 3f
       -0.4060915 -0.28412637 0.40622962 0.5672607
000070 2a 47 c7 be ae cf d8 be 8e 9f c6 be b9 83 87 3e
       -0.3892148 -0.42345947 -0.38793606 0.26467684
000080 52 79 c2 be c5 bb 15 be ac f5 50 be 64 4a e4 be
       -0.37983185 -0.1462241 -0.20406216 -0.44588006
000090 fa 0b 94 3e 0f 9f 6b be a3 cf ff be fd 00 eb 3d
       0.28915387 -0.23009895 -0.49963102 0.11474798
0000a0 b2 fd c3 3d 80 99 c1 3e 11 e2 f9 be 4a 32 14 3e
       0.09569873 0.37812424 -0.48805287 0.14472309
0000b0 8d d3 ec be f5 54 f8 be 92 f8 be 3d 02 36 8e be
       -0.4625515 -0.48502317 0.09324755 -0.2777558

backbone.model.0.downsampling.bn.weight f4 [16]
000000 61 7c 7e 3f b2 33 7a 3f 6a 4b 7a 3f 48 83 7a 3f
       0.9940854 0.9773513 0.9777132 0.9785657
000010 40 f7 79 3f d2 97 79 3f 7f 4f 7c 3f 55 3f 7c 3f
       0.976429 0.97497284 0.985588 0.98534137
000020 fd 5c 7a 3f c1 f0 79 3f bf 5a 7d 3f ad 2d 7a 3f
       0.9779814 0.97632986 0.9896659 0.97725946
000030 ee 4a 7a 3f 71 fa 79 3f da 45 7b 3f ce 75 7a 3f
       0.97770584 0.9764777 0.9815346 0.97836006

backbone.model.0.downsampling.bn.bias f4 [16]
000000 c2 91 7b 3c 41 23 4d 39 8d a8 b9 3b 03 34 1b 3b
       0.015354576 0.00019563457 0.005665845 0.0023682124
000010 24 0f 9d bb 39 2d f1 bb f2 ef 99 3c 9e 5c 3a 3c
       -0.0047930647 -0.0073601273 0.018791173 0.011374621
000020 2f f5 e1 3b ec c5 e2 3b 84 af aa 3b d1 73 92 3b
       0.0068956832 0.006920567 0.0052089114 0.004469373
000030 54 4a 08 3c 34 84 b5 bb 11 95 a8 3a b3 88 62 3b
       0.008318502 -0.0055394415 0.0012861808 0.0034566342

backbone.model.0.downsampling.bn.running_mean f4 [16]
000000 54 d6 98 bc 18 1a 0d 3e 9a 11 0a be 73 a8 a2 bd
       -0.018656887 0.13779485 -0.13483277 -0.079422854
000010 4a b2 07 3e d3 d7 cc 3d 21 6b 8a bd 51 b7 a3 3d
       0.13251606 0.10002103 -0.067587145 0.07993949
000020 47 39 dc bd 73 b2 ec bd bc 2a 54 be f0 dc aa be
       -0.10753112 -0.11557474 -0.20719427 -0.33371687
000030 8a d1 45 be 01 08 7d 3e 62 3d aa be c2 38 8c be
       -0.19318214 0.24710084 -0.33249956 -0.27387053

backbone.model.0.downsampling.bn.running_var f4 [16]
000000 b4 6d 8a 3a ba 9e 86 3b 93 27 83 3b 2d 7c d5 3a
       0.0010561259 0.004108277 0.0040025203 0.0016287618
000010 17 2a 9c 3b 12 7e 0c 3b 9a f2 a6 3a 7d 5a b5 3a
       0.0047657597 0.0021437448 0.0012737096 0.0013836172
000020 15 23 6c 3b 77 20 72 3b f7 ec f9 3b 9c ab 9d 3c
       0.0036031653 0.003694562 0.0076271254 0.019246869
000030 51 1e e8 3b 37 fe 2c 3c d7 1b 9f 3c 3e a6 5b 3c
       0.007083692 0.010558656 0.019422455 0.013406334

backbone.model.1.conv.0.conv.weight f4 [64, 16, 3, 3]
000000 f9 55 96 bc 8b 85 9c bd 95 43 58 3d 14 5c ac bc
       -0.018351542 -0.07642659 0.052798826 -0.02104
000010 2d 99 6a 3d 8f 0b 1f bd c1 57 97 bd 06 b9 07 3d
       0.057274986 -0.038829383 -0.073897846 0.033135436
000020 81 2c 72 3d 88 29 1f 3c 3b 7b 80 3d 41 d1 17 bd
       0.059124473 0.009714492 0.06273504 -0.037064794
000030 41 4a 52 bd 1c 6c 85 bd 6e 2c 73 bd 0f 65 9e ba
       -0.051340345 -0.06514761 -0.059368543 -0.0012084561
000040 31 d4 26 3d 9f 95 72 bd 27 84 e1 3c 95 5e 87 bd
       0.040729705 -0.05922472 0.027528835 -0.06609837
000050 50 cb 77 ba 44 8e 83 3b a6 e8 8c 3c 12 1b 9d bd
       -0.0009452598 0.004014762 0.01720078 -0.07671179
000060 9d 6b a1 3c 65 1e d0 bb dc ee 83 3c 4c c5 76 3d
       0.019704634 -0.0063512796 0.016105108 0.06024675
000070 60 ae 8b 3d 69 cb 5d 3d 7b 30 dd bc 71 a2 27 bd
       0.06820369 0.054149065 -0.027000656 -0.0409264
000080 9c 44 0d 3d 21 fa 2f bd 52 97 66 bc e6 6d 11 bd
       0.03448926 -0.04296315 -0.0140741635 -0.035505198
000090 b5 e8 4c 3c 42 5a a2 bc 15 43 53 3d 96 3b e7 bc
       0.012506654 -0.019818429 0.051577646 -0.028226655
0000a0 af c1 7c bd 59 22 6b bc 85 14 ea 3c e3 29 a0 bd
       -0.06170815 -0.014351451 0.028574238 -0.07820489
0000b0 5c 1d 9a bd d8 e0 42 3d 79 08 3e 3a 7b 2d e6 3c
       -0.07525131 0.04757771 0.00072491873 0.028097859
0000c0 c1 57 e1 3c 55 54 a8 3c 9c d3 1a 3d d1 57 64 3d
       0.027507665 0.020548025 0.037799463 0.05574781
0000d0 82 06 72 bd 06 35 3d 3c 51 31 6d 3d 8a 6a 6a 3d
       -0.059088238 0.011548286 0.05790836 0.05723051
0000e0 03 3d 80 3c 04 28 9e 3c 65 f5 38 3d 8c ef 45 bd
       0.015654093 0.01930619 0.0451559 -0.048324153
0000f0 9a d1 ed 3c e1 a6 37 3d 2f a0 f8 bc 20 8d a1 3d
       0.02903061 0.044836883 -0.030349819 0.078882456
000100 f9 af 25 3d e1 6e 99 bd 7d 17 ec bc 31 b7 76 bc
       0.040451024 -0.074918516 -0.028819794 -0.015058325
000110 2e 95 45 3c d6 57 7b bd 10 68 83 3c e9 4b 83 3d
       0.012059493 -0.061363064 0.016040832 0.06410963
000120 5a cd 86 bd fb 46 13 3c 66 e9 09 3d 7c 8c 4e bb
       -0.065821365 0.008989091 0.03366985 -0.003151684
000130 00 a2 23 bd 9c e9 8d bc 8e d5 95 bc 9d 96 92 3d
       -0.039949417 -0.017323308 -0.018290307 0.071576335
000140 3f 3f 4d 3d 9d 82 32 3d 3a 01 3c bd 4e 8f 18 3d
       0.050109144 0.043581594 -0.045899607 0.03724604
000150 b5 b5 46 3d 26 ae c9 bb 3c 1a a6 3b 41 63 49 3d
       0.048513133 -0.0061547933 0.0050690453 0.04916692
000160 cf 44 21 bc ec 0f 9f 3c 4e 66 9c 3c 74 4f eb bb
       -0.009843065 0.019416772 0.019091751 -0.0071811024
000170 06 5e fb bc 81 5d b6 3c 31 99 26 bd 76 31 95 3d
       -0.030684482 0.022261383 -0.04067344 0.072848246
000180 74 7a 93 3d 32 e1 50 bd 88 24 5a 3d 56 17 47 bd
       0.072010905 -0.050996013 0.053257495 -0.04860624
000190 32 7c 96 bc eb 10 ae 3c ba 23 d8 bc 3c 65 98 bd
       -0.018369768 0.021248301 -0.026384223 -0.07441184
0001a0 43 fc 97 bc f1 8a 81 bd 82 ad 33 3d 21 56 7c bd
       -0.018552905 -0.06325329 0.04386664 -0.061605576
0001b0 08 bc e8 bc 2e 00 01 ba 29 41 1d bd 92 f8 5e bd
       -0.028409973 -0.0004920986 -0.03839222 -0.054436274
0001c0 70 87 3b 3c c2 86 af bc 00 f9 94 bd 61 64 a6 3d
       0.011445865 -0.021426562 -0.072740555 0.081246145
0001d0 86 f1 21 3d 10 51 5b 3d 5f 1e 7a 3d 79 1c 7f bd
       0.039536975 0.053544104 0.06106412 -0.062283013
0001e0 2c d6 23 bd 1f ae 60 3d e8 85 8b bd 41 75 4b bc
       -0.039999172 0.054853555 -0.0681265 -0.012418092
0001f0 27 82 f6 bc fe 3e 6e 3d 6a d7 0a 3d a1 e2 63 bd
       -0.030091358 0.058165543 0.03389684 -0.055636052
000200 e0 7e 8c 3b 52 50 8a 3d fd cf f8 3c 9e 50 8e 3d
       0.0042875856 0.06753601 0.030372614 0.0694897
000210 93 81 0e 3c fc 83 60 3d 10 c6 02 3d b8 06 0f 3d
       0.008697885 0.05481337 0.03192717 0.034918517
000220 c1 b6 89 bc 0f a3 67 3c 20 7c 5b bd 85 28 88 39
       -0.016810777 0.014137997 -0.05358517 0.0002597013
000230 df 05 c1 3c ca c4 17 3b 49 39 a3 bc 38 31 41 3d
       0.02356237 0.0023158067 -0.019924777 0.04716608
000240 77 65 48 bd 31 00 a2 bc 48 10 81 bd f5 a8 3c 3d
       -0.04892489 -0.019775482 -0.063019335 0.046059567
000250 d8 ad 2f bd 4d 27 54 bc f9 68 2a 3d e4 d1 b7 3c
       -0.0428904 -0.012948823 0.041604016 0.02243895
000260 af 5d 8d 3d a8 59 0b 3d 20 cd a1 3c 95 93 3b bd
       0.06902634 0.03402105 0.019751132 -0.045795042
000270 1d a6 16 bd a7 89 d0 bc 29 a2 7f bc df e4 b7 3b
       -0.03677951 -0.025456263 -0.015602627 0.0056120004
000280 5b d8 8b 3d 49 7e 92 3d 1e 87 71 bc c8 76 6b 3d
       0.06828376 0.07152993 -0.014741687 0.057486326
000290 6a 46 dc 3c 9c a1 48 bd 2b 20 25 bb 47 45 44 3d
       0.026889045 -0.048982248 -0.0025196176 0.04791763
0002a0 0c 21 1c 3d d8 70 81 3d 10 95 4e bc e3 65 9f bc
       0.038117453 0.06320351 -0.012608781 -0.019457763
0002b0 6a 04 90 3c a2 34 67 3d 33 6e 9b bc af f1 08 bd
       0.01758023 0.05644668 -0.018973446 -0.033433612
0002c0 96 37 7c 3d e6 61 9e 3d ba 45 de bc 30 a1 28 bb
       0.06157645 0.077335164 -0.027132858 -0.002573084
0002d0 a6 b2 ef bc 2f db 35 bc 6c f6 e5 bc bf 77 4a bd
       -0.02925999 -0.011099621 -0.028071605 -0.049430605
0002e0 0e 0f 6b bd 98 00 b2 3c 47 bf f9 bc e6 fe 51 bb
       -0.057387404 0.021728799 -0.030486716 -0.00320428
0002f0 a5 9f 16 3d 7b ca 1d bd 19 e2 51 3c ad e5 07 3d
       0.036773343 -0.03852318 0.012810254 0.03317802
000300 0b 6d cc 3c 9d ec a0 3d a5 1b 02 3d 7e ff 10 3d
       0.02495434 0.078576304 0.031764645 0.035399906
000310 c8 3e cc bc 57 99 1e bc ab 4c be bb e9 4b 9d 3d
       -0.02493228 -0.009680114 -0.0058074794 0.07680494
000320 49 bb c9 3a 8c 66 2c bb 23 f0 c5 3c 57 07 72 bd
       0.0015390898 -0.002630624 0.024162358 -0.05908903
000330 b5 e2 18 bd 47 25 3c bd 75 9a 80 3d 34 1d a8 3d
       -0.03732558 -0.045933988 0.0627946 0.08208695
000340 47 97 6b bc b4 e0 ae 3d 2a e2 02 3d 10 2e 8d 3d
       -0.014379329 0.085389525 0.031953968 0.06893551
000350 c8 c2 86 3d e2 c7 7a 3d ad 6c 0c bd 59 13 b9 3c
       0.0658012 0.06122578 -0.03428333 0.022592233
000360 d1 9d 28 3d 2a 65 0f 3d a8 85 55 3d d6 12 59 3c
       0.04116613 0.035008587 0.052129418 0.01324912
000370 10 b5 88 3c 22 c0 88 bd 82 33 77 bd 9f 95 c2 3c
       0.0166879 -0.066772714 -0.060351856 0.023752986
000380 7a 71 cd 3c 83 ba be bc b6 ac 8b bc 6f f4 80 bd
       0.025078524 -0.023282295 -0.017050128 -0.06296622
000390 b9 3e 7f 3a 80 39 41 3d d2 f3 1b 3d 50 48 3d bd
       0.00097368244 0.047173977 0.038074322 -0.04621154
0003a0 eb d3 89 bb 9c af 78 bd 39 49 86 3c cd 7f 8e 3d
       -0.004206171 -0.06071435 0.016392337 0.0695797
0003b0 dd 5e 05 bb 69 44 93 bd 3f 69 7b bd f8 9d 81 3d
       -0.0020350732 -0.071907826 -0.061379667 0.06328958
0003c0 fc f6 38 bd 51 fb 7d bd c5 a9 54 3d a0 fc 1e bd
       -0.045157418 -0.062007252 0.051919717 -0.03881514
0003d0 61 7a a3 bd 31 42 c4 bc 03 15 2b 3b 50 01 9d 3c
       -0.07982326 -0.023957344 0.0026105053 0.019165665
0003e0 11 d3 35 3d d0 ff 59 3d 99 e7 ea bc 74 19 8a 3d
       0.04439074 0.053222477 -0.028674887 0.06743136
0003f0 c2 9d b6 3b 28 48 89 bd 8e 30 8d 3d 37 dc c4 bc
       0.0055730054 -0.06703216 0.06894027 -0.024030788

backbone.model.1.conv.0.bn.weight f4 [64]
000000 6d c1 79 3f 33 f0 79 3f 07 56 79 3f 78 09 7a 3f
       0.9756077 0.9763214 0.9739689 0.976707
000010 37 cc 79 3f e8 76 79 3f 9b ab 79 3f b0 c0 79 3f
       0.9757723 0.9744706 0.97527474 0.9755964
000020 27 13 7a 3f c9 48 79 3f d2 d7 79 3f 9b 4b 79 3f
       0.97685474 0.97376686 0.9759494 0.9738099
000030 cb 93 79 3f f0 4a 79 3f 77 50 79 3f 88 5a 79 3f
       0.9749114 0.9737997 0.97388405 0.97403765
000040 13 6d 79 3f d5 66 79 3f 99 a7 79 3f 02 9e 79 3f
       0.9743206 0.97422534 0.9752136 0.97506726
000050 91 46 79 3f c3 56 79 3f d9 89 79 3f 51 58 79 3f
       0.973733 0.9739801 0.97475964 0.97400385
000060 a5 e2 79 3f 97 63 7a 3f ef 4d 79 3f bb f5 79 3f
       0.9761146 0.9780821 0.9738454 0.9764058
000070 f8 b6 79 3f 95 79 79 3f ac 71 79 3f 1b c6 79 3f
       0.97544813 0.97451144 0.97439075 0.9756791
000080 3a 7c 79 3f 10 39 79 3f 0d 88 79 3f 0d 6b 79 3f
       0.9745518 0.97352695 0.9747322 0.9742897
000090 e4 e9 79 3f ad a7 79 3f d4 d3 79 3f 0c b2 79 3f
       0.97622514 0.9752148 0.9758885 0.975373
0000a0 65 90 79 3f 0e a2 79 3f 88 4a 79 3f 4c ae 79 3f
       0.97485954 0.975129 0.9737935 0.9753158
0000b0 2f c7 79 3f a4 5f 79 3f a1 8d 79 3f c5 7a 79 3f
       0.97569555 0.9741156 0.97481734 0.97452956
0000c0 a6 88 79 3f 26 34 7a 3f a4 62 79 3f d6 7b 79 3f
       0.97474134 0.9773582 0.9741614 0.97454584
0000d0 82 b6 79 3f c2 ac 79 3f 5f 5c 79 3f 80 69 79 3f
       0.9754411 0.9752923 0.9740657 0.97426605
0000e0 2f 66 79 3f 39 78 79 3f 5c a4 79 3f 21 be 7a 3f
       0.97421545 0.9744907 0.9751642 0.97946364
0000f0 e6 2d 79 3f a5 ba 79 3f 35 05 7a 3f 9e 90 79 3f
       0.9733566 0.9755042 0.97664195 0.97486293

backbone.model.1.conv.0.bn.bias f4 [64]
000000 3f 2a fa ba fb 14 3e 3b 2a 06 b7 ba a1 fb 2e 3b
       -0.0019086077 0.0029004205 -0.0013963629 0.0026700275
000010 87 4a ef ba 13 0d bf 3a 45 ac 0c 3c 96 e5 b2 ba
       -0.0018256464 0.001457604 0.008585994 -0.0013648744
000020 c6 8d 00 3c 66 42 c1 bb 71 10 30 3b ae db 2f bb
       0.007846301 -0.005897808 0.0026865269 -0.002683382
000030 21 38 c2 bb 3f e6 5c bb 26 b9 a0 3a 52 e5 c7 3b
       -0.0059271012 -0.0033706573 0.001226221 0.006100335
000040 ba cd 67 bb 3e 0a e7 3a 83 38 6c 3b 5a 89 fd ba
       -0.0035370425 0.0017626954 0.0036044426 -0.0019343302
000050 fe eb 29 bb 74 b9 aa ba fc b6 6b ba b6 16 bd 3a
       -0.0025928016 -0.001302524 -0.00089918054 0.0014426324
000060 e3 46 38 bb 83 96 a3 3a f9 11 35 3b 27 89 48 3c
       -0.0028118424 0.0012480769 0.002762912 0.012239731
000070 20 0f 11 3c 69 c3 76 3b b0 10 d9 ba 89 b7 6d 3b
       0.008853704 0.0037653095 -0.0016560759 0.0036272726
000080 2e 97 cc bb 35 9e a0 3b 0a 02 59 3b 27 c2 15 3a
       -0.006243608 0.0049016722 0.0033112788 0.000571283
000090 a0 3f 86 3b ab f3 eb b9 92 a5 ab bb 4b 42 ee 3a
       0.00409694 -0.0004500424 -0.0052382434 0.0018177716
0000a0 59 41 db ba 5d 3a a3 3b aa 60 dc 39 92 61 36 3c
       -0.0016727849 0.0049813227 0.0004203369 0.011131661
0000b0 b5 94 83 ba 91 6d d4 bb cb 46 84 3c 62 ee 9d 3a
       -0.0010038825 -0.006482788 0.016147038 0.0012049193
0000c0 4d 0d 81 bb bb 62 06 3c 58 cf 8b bb 8d c1 11 3b
       -0.003938353 0.00820225 -0.0042666607 0.002224061
0000d0 a0 98 2e 3c f8 7a 43 bb e8 07 96 bb 7f 16 50 bb
       0.010656506 -0.0029827934 -0.004578579 -0.003175169
0000e0 b5 ee 13 bc c4 2a fe bb 26 4c cc 3a c5 75 9f 3a
       -0.00902908 -0.007756563 0.0015586659 0.0012165835
0000f0 df 25 a9 bb 5a 11 f3 3b ac bc 2c 3a 8f 9d 95 3b
       -0.0051619853 0.00741784 0.00065893936 0.0045659016

backbone.model.1.conv.0.bn.running_mean f4 [64]
000000 02 fa e7 3c 31 80 8c 3e 2a de 92 be 59 14 c0 3d
       0.028317455 0.27441552 -0.28685123 0.09378881
000010 72 83 86 3e 82 de 7e 3d 23 f8 a5 3d ff d3 02 3e
       0.2627216 0.06222392 0.08103969 0.12776183
000020 9e 81 49 3e e4 12 1c be 3a 48 bd bd ae 7c 35 be
       0.19678351 -0.15241581 -0.09242292 -0.17723343
000030 c7 d9 8e 3e 2e 7e a9 be 3d 68 e7 be af 76 f9 3d
       0.27900526 -0.3310408 -0.45196715 0.1218084
000040 02 07 a8 be e8 16 85 be 66 13 96 3d c1 e0 31 be
       -0.32817847 -0.2599404 0.07327919 -0.17370893
000050 cf fe c3 be 50 b2 48 be 10 84 7e 3d 2c ff 4e 3e
       -0.3828034 -0.19599271 0.062137663 0.20214528
000060 f0 50 ae 3e 73 9f 06 3f 35 96 e3 be fe 52 05 be
       0.34046125 0.5258705 -0.44450536 -0.1301994
000070 49 09 8e 3d bd 55 a0 be d3 97 1b be ce 1a b0 3c
       0.06935365 -0.31315413 -0.15194635 0.021497156
000080 9b 6e ea 3d 64 fc 84 3e 85 a8 bb 3d 6b 50 50 be
       0.114468776 0.2597381 0.09163002 -0.20343177
000090 b0 79 9c 3d 9d 62 be bd 41 10 44 3e a1 7b bd 3c
       0.076403975 -0.09296153 0.19146825 0.02313024
0000a0 4a ca 17 3e 83 8e a3 3d e5 04 06 be 7f 25 45 bd
       0.14823261 0.07986166 -0.13087805 -0.048131462
0000b0 b5 cb 9d 3d 7d f0 26 be c7 39 41 bd d3 29 d2 bd
       0.0770487 -0.16302676 -0.04717424 -0.102618836
0000c0 13 bf c6 bc 9d 75 1d be dd e7 80 3e 46 81 50 3d
       -0.024261033 -0.15376897 0.25176898 0.050904535
0000d0 2a 0d 72 3d 05 88 25 3e e4 1a 95 3c 12 30 ed 3e
       0.059094585 0.16165169 0.018201299 0.46325737
0000e0 24 78 96 3d 81 de ed bb 4a 11 0b 3e 1a 8c f1 3d
       0.07347134 -0.0072591905 0.13580814 0.117943004
0000f0 98 f9 36 3e 39 59 29 3e 4b 53 de bd 1d 12 a3 3e
       0.1786865 0.16537942 -0.108557306 0.31849757

backbone.model.1.conv.0.bn.running_var f4 [64]
000000 4b 86 0a 3e bd 39 61 3e bc 12 45 3e 05 58 d8 3d
       0.13527791 0.21994682 0.19245428 0.105636634
000010 09 64 42 3e 70 47 2e 3e c8 b6 2e 3e 40 40 63 3e
       0.18983473 0.17019439 0.17061913 0.22192478
000020 4c 5d e1 3e 68 38 12 3e 3c 3c 47 3e 17 f7 3f 3e
       0.44016492 0.1427933 0.19456571 0.18746601
000030 10 72 5b 3e e7 b7 1a 3e 66 ef c0 3e f8 6f ae 3e
       0.2143023 0.15109216 0.37682647 0.340698
000040 89 f2 cd 3e c4 31 72 3e a1 4d 1a 3e cb a2 1c 3e
       0.40224102 0.23651797 0.15068676 0.15296476
000050 41 ac be 3e 0c 84 36 3e 14 99 80 3e 9f b2 7d 3e
       0.37240794 0.1782381 0.2511679 0.2477517
000060 47 42 37 3f a1 eb 6b 3f 9b 7a d4 3e 24 77 26 3e
       0.71585506 0.92156416 0.4149979 0.16256386
000070 d8 33 29 3e b6 b0 a3 3e 1c 35 9e 3e ef ea 15 3e
       0.16523683 0.31970757 0.30899894 0.14640401
000080 cd 32 56 3e 0f 38 69 3e 4b dd 83 3e 55 fd 1d 3e
       0.20917816 0.22775291 0.2575477 0.1542867
000090 a7 89 36 3e ae 13 13 3e 84 d5 85 3e 04 f8 b4 3e
       0.17825948 0.14362976 0.26139462 0.3534547
0000a0 85 54 7e 3e 46 5f 4a 3e 6b 09 72 3e 7c 17 85 3e
       0.24836929 0.19762906 0.23636405 0.2599448
0000b0 8b ce 04 3e eb 35 0e 3e 0b 4a fd 3d ea 8b 3b 3e
       0.12969415 0.13887756 0.12367638 0.18315092
0000c0 ca 3d 8a 3e e4 bf 2f 3e 75 76 72 3e 80 bc fd 3d
       0.27000266 0.17163044 0.23678 0.12389469
0000d0 18 e3 5f 3e 37 8a 15 3e 82 fb 10 3e 8a 4c e3 3e
       0.21863973 0.14603506 0.14158443 0.44394332
0000e0 64 08 21 3e 05 38 9a 3e 50 9d 3d 3e 78 6a a7 3e
       0.15725857 0.30120865 0.18517041 0.32698417
0000f0 4b cd 1b 3e 0e 47 83 3e dc 04 d0 3d 71 5e 92 3e
       0.15215032 0.25640148 0.10157177 0.28587678

backbone.model.1.conv.2.conv.weight f4 [24, 64, 1, 1]
000000 75 fa a2 bc 34 4e 0e 3d 84 ea e8 bd ca a0 1e 3d
       -0.019894818 0.03474255 -0.11372855 0.03872756
000010 e4 4f 0d bd 2c e9 a7 3d 43 ea c1 bc 9f 0c ac 3d
       -0.034500018 0.08198771 -0.023671275 0.08400845
000020 a4 7d 81 3b 4e 8d 02 bd ee 01 da 3c f8 76 ec 3c
       0.003951745 -0.03187304 0.026612248 0.028865322
000030 5a fb 0b 3b ca 33 e3 bb 84 81 01 3d d4 b3 65 3d
       0.0021359534 -0.006933664 0.031617656 0.0560797
000040 83 93 55 bb 31 67 ab bd f7 aa dc bd a6 df c0 3c
       -0.0032589145 -0.083692916 -0.107747965 0.023544144
000050 e6 2f e3 bd ad 55 83 bd f1 b9 a9 3c 9e b5 70 3b
       -0.1109312 -0.06412826 0.020718547 0.0036729346
000060 cc 57 b5 bd 82 35 70 bd 8b bd ba bc 74 54 44 bd
       -0.088546365 -0.05864478 -0.02279546 -0.047932103
000070 75 14 11 bd ed dd 19 bd c9 a5 05 3d ea bc 31 bd
       -0.0354199 -0.03756516 0.03262881 -0.043393053
000080 11 23 a1 bc 09 28 39 bd 33 5b 21 3d 2c cf 5c 3b
       -0.019670041 -0.045204196 0.039393615 0.003369282
000090 24 ae 47 3d 13 0e e0 3d a9 bd a1 bc 59 be 7b bd
       0.048750058 0.109401844 -0.019743757 -0.061460827
0000a0 d7 4f fb 3d 67 a3 e5 3d e7 a6 cd bc 25 a1 8b bd
       0.122710876 0.11212807 -0.025104 -0.06817845
0000b0 93 72 15 bd a2 d4 4a bd 3a ac 83 3d 22 63 81 3c
       -0.03648622 -0.04951919 0.06429334 0.01579434
0000c0 7b 62 45 3d 3d 6c ca bd 10 01 3a 3d 64 a1 ba bd
       0.04818962 -0.09883926 0.04541117 -0.09112814
0000d0 ef e2 96 3d ee 94 65 3d 00 c2 ec bc 5f ed c3 bd
       0.07367503 0.056050234 -0.0289011 -0.09566759
0000e0 be e7 61 bd 47 84 40 bd 12 5f d3 bd b4 e0 e7 bc
       -0.055152647 -0.04700115 -0.103208676 -0.028305389
0000f0 8e ff d5 3a 1e 33 d7 3d ad cc 39 bc 64 0f cc bd
       0.0016326772 0.10507797 -0.011340302 -0.09963873
000100 c5 38 93 bd 8f 5d d7 3d 62 9b 78 3d 14 7f 97 bd
       -0.07188562 0.10515892 0.06069506 -0.07397285
000110 f9 7e e7 bd d8 56 e5 3d 4d 3d cf bd 7c 09 9c bd
       -0.11303515 0.11198205 -0.10119114 -0.076189965
000120 f0 06 7f 3b a1 45 6f bc a2 5f a2 3d 38 dd a3 3d
       0.0038914047 -0.014604003 0.07928397 0.080011785
000130 5c 1f a5 bb 08 27 fb bb ba 75 cf 3c 60 ad dc bc
       -0.0050391387 -0.007664565 0.025324691 -0.02693814
000140 f7 28 3a 3b 67 4f c8 3d 67 a0 b2 3d 26 18 e1 bd
       0.0028405765 0.0978077 0.087220006 -0.10990934
000150 b9 cd aa bd ef 4b cc 3c 15 78 7b 3d 92 1f 18 3c
       -0.0834002 0.024938552 0.061393816 0.009284871
000160 bc 17 aa 3c 56 d4 a3 bd 54 ff e2 3d 87 c1 7e bd
       0.02076327 -0.07999484 0.11083856 -0.06219628
000170 0e 44 ca bd 27 d7 07 3d ce 24 ed bb 28 2e a2 3d
       -0.09876262 0.03316417 -0.0072370535 0.0791896
000180 8a c5 c7 bd 09 f1 96 bd 8c e5 c2 3c ef c0 ba 3d
       -0.097544745 -0.073701926 0.023791097 0.091188304
000190 10 d2 1a bd eb c3 78 3d bf 3c a0 bc 82 0b bb bd
       -0.037797987 0.060733717 -0.019560216 -0.09133054
0001a0 cf 34 4a bc a7 d9 c5 bc 09 55 56 bd dd 06 73 bd
       -0.012341692 -0.024151636 -0.05232719 -0.059332717
0001b0 c7 5c 07 3d 97 62 e1 ba c1 58 a1 3d 01 17 f1 bc
       0.033047464 -0.001719552 0.078782566 -0.029429914
0001c0 bc 8e a9 bd 0f be d4 bd d1 ec ce bd 28 02 e0 3d
       -0.082791775 -0.10387813 -0.10103763 0.10937911
0001d0 f2 4c 33 bd 82 8a be bd 97 08 31 bd 44 05 01 3d
       -0.043774553 -0.09303762 -0.043221083 0.031499162
0001e0 d3 35 2b bc 0a 8e a2 bd 13 5d 70 3c d9 58 cc bd
       -0.010449844 -0.07937248 0.014670628 -0.09977884
0001f0 ec 14 f0 bc c2 a0 e3 bb c1 9c 8d bc 80 6e 83 bd
       -0.029306851 -0.006946654 -0.01728666 -0.064175606
000200 52 35 4c bd f4 65 9d bd e7 ce 84 3d cc 9e e3 bd
       -0.049855538 -0.07685462 0.06484776 -0.111142725
000210 d0 12 92 3c ac f7 40 bc df 68 d7 3d a5 41 f5 bd
       0.017831236 -0.0117778 0.105180494 -0.11975411
000220 ba 75 f8 3d 29 da 36 3c a6 29 c5 bc 08 17 8b 3d
       0.121318296 0.011160412 -0.024067711 0.06791502
000230 b1 63 b7 bd dd da 25 3d dd 85 fd bb 5b 09 f2 bc
       -0.089545615 0.040491927 -0.007736905 -0.029545477
000240 fd 5a 07 bc a5 2b 99 3d 76 b1 b9 bd 9c 4b 8c 3d
       -0.008261439 0.07479028 -0.09067051 0.06850359
000250 5c a5 29 bb 90 ac ed bd 08 7d f2 3d 7e 71 b9 bc
       -0.0025885915 -0.11605179 0.11840254 -0.022637125
000260 20 0f 54 3d f7 9b db 3c 0d 60 a2 bd 4d fa c6 3c
       0.051772237 0.026807768 -0.079284765 0.024289275
000270 8d 85 16 3d ba 9b 06 bd 2e 7a 67 bd 69 c8 b0 3d
       0.036748458 -0.032863356 -0.056513004 0.08631975
000280 3b b8 0d 3d 1e 72 b1 3b 10 98 8c bc ba be 95 bd
       0.034599524 0.005415215 -0.017162353 -0.07311769
000290 0a 28 d6 bc 5b 06 a2 3d e8 87 5f bd ef 0c f2 bc
       -0.026142139 0.079113685 -0.05457297 -0.029547183
0002a0 2b b6 fe 3c 0e 10 d9 bd b0 2f cd bd 83 fa 29 bc
       0.031092724 -0.10598765 -0.10018861 -0.010374668
0002b0 d9 b0 15 3d fe 23 33 bd 61 1e a0 bd 82 7f 48 3c
       0.03654561 -0.043735497 -0.07818294 0.0122374315
0002c0 4b f7 0f 3d 9a c0 92 bd 9b 28 f0 bd 68 af 60 3d
       0.035147946 -0.07165642 -0.11726495 0.05485478
0002d0 70 25 dc bd 4a 8c c3 3d 38 7e f1 bc 72 a3 cc 3d
       -0.10749328 0.095482424 -0.029479131 0.09992112
0002e0 44 14 ce bc fb 08 b3 3d 37 94 ac bd 30 67 b4 3d
       -0.025156148 0.08741947 -0.08426707 0.08808744
0002f0 24 64 d1 3d ef 93 68 3d 3a e0 a3 bd 3a af ce 3d
       0.102241784 0.056781705 -0.08001752 0.100920156
000300 72 94 39 3d de fd ff 3d 73 94 1d 3c cd 1c cb 3d
       0.045307584 0.12499593 0.009617913 0.09917603
000310 fe 20 62 bc 18 fd f8 3d 98 eb 36 3d 0d 02 b3 bd
       -0.013801811 0.12157649 0.044658273 -0.087406255
000320 1f 04 b3 3d 65 8d 69 3d 23 4f 01 bc d6 21 db bc
       0.087410204 0.05701961 -0.007892403 -0.026749533
000330 02 48 9f bd 56 86 12 bd c3 49 8a bd a2 87 a7 bd
       -0.07777406 -0.035772644 -0.0675235 -0.08180167
000340 e5 20 94 bc bc 9c c0 bd 7a 58 87 3d 8c 89 d1 3d
       -0.018082092 -0.09404895 0.066086724 0.10231313
000350 e1 8e ec bd 07 3a 95 bd 8d a7 d2 bd 3c 58 bc bb
       -0.115506895 -0.072864585 -0.10285864 -0.005747823
000360 51 29 a1 bd 6a 0d a3 bd a4 56 82 3c 16 28 90 3c
       -0.078692086 -0.07961543 0.015910454 0.01759724
000370 ca 8b ca 3d 5c 8d db bd 8b e0 4d bc 4f 6b 8e 3d
       0.09889944 -0.107203215 -0.012565742 0.06954061
000380 74 c2 1f bd 4a a9 a2 3d 24 fa db bd 2b 97 75 3c
       -0.039003804 0.079424456 -0.1074107 0.0149896545
000390 5f d9 07 bd 30 5d 97 bc 24 3c df bc 8a ad 33 bc
       -0.033166286 -0.018477052 -0.027250357 -0.010966668
0003a0 80 7d e5 3c d1 34 ca bd b9 a0 63 3c c5 b5 9a bd
       0.028013945 -0.09873355 0.0138933 -0.07554201
0003b0 ee b5 de bc 18 2c ef 3d 41 dc 4e 3d f7 43 e8 3b
       -0.02718636 0.11678332 0.05050302 0.00708818
0003c0 be 00 8a 3d b7 a1 95 bd 4b bf 80 bc cd 3c 13 bd
       0.06738423 -0.07306235 -0.015716216 -0.035946656
0003d0 c1 c7 85 3d b9 fb 07 3d 70 39 7d bd e7 e4 e6 3d
       0.06532241 0.033199046 -0.061822355 0.112741284
0003e0 65 51 9a 3c 1f c2 21 3d 57 ef 9d bd 8f 63 e8 3b
       0.01883764 0.03949177 -0.07711666 0.0070919464
0003f0 c0 94 d0 bd 0d ee 40 3d 70 59 75 3d ab 73 dc bc
       -0.10184622 0.047102023 0.059899747 -0.026910624

backbone.model.1.conv.2.bn.weight f4 [24]
000000 29 a0 79 3f 05 ac 79 3f 0d 90 79 3f c2 b0 79 3f
       0.9751001 0.97528106 0.9748543 0.97535336
000010 62 93 79 3f 3c 48 79 3f 4f bc 79 3f f5 de 79 3f
       0.97490513 0.97375846 0.9755296 0.9760583
000020 3e 1c 7a 3f 46 3c 7a 3f dc 08 7a 3f b2 d4 79 3f
       0.97699344 0.9774822 0.9766977 0.9759017
000030 43 62 7a 3f 18 eb 79 3f 1e e6 79 3f f7 51 7a 3f
       0.97806185 0.9762435 0.97616756 0.9778132
000040 7a 9a 79 3f 28 fb 79 3f 20 93 79 3f 83 ac 79 3f
       0.9750134 0.9764886 0.9749012 0.97528857
000050 00 b2 79 3f db 84 79 3f 35 5b 7a 3f ba 02 7b 3f
       0.9753723 0.97468346 0.9779542 0.98051035

backbone.model.1.conv.2.bn.bias f4 [24]
000000 62 40 f3 b9 c9 d9 b2 3a eb 3c 7c b9 35 63 28 bb
       -0.0004639654 0.0013645227 -0.00024055286 -0.0025693898
000010 7f 75 7f 3b 22 d0 ef ba c1 31 47 3b bc ed cd 39
       0.0038979945 -0.0018296281 0.0030394646 0.00039277773
000020 ba 7f 21 bb 9a 3b d3 3b 4a 96 12 bb 1c 4e 1d bb
       -0.0024642781 0.006446314 -0.0022367411 -0.0024002856
000030 8c 6c 9c 3c 64 a1 f2 3a cb 5e 0f ba e2 82 78 bb
       0.019094728 0.0018511233 -0.00054691423 -0.003791981
000040 97 92 a4 bb 05 40 d6 ba 89 37 a4 3b a2 4c 77 bb
       -0.0050223577 -0.0016345984 0.005011503 -0.0037734886
000050 2a 19 86 bb f4 74 1d bb 01 fc ab 3a 0f b4 11 3c
       -0.0040923553 -0.0024026008 0.0013121368 0.008893027

backbone.model.1.conv.2.bn.running_mean f4 [24]
000000 2f 6a 07 be 1b 35 1d be 5a 08 be bc c9 cd 4f bd
       -0.132241 -0.1535229 -0.023197342 -0.05073336
000010 2f 7d e7 bd 4e f0 f6 3b c3 be ef 3d 46 ef a3 bc
       -0.11303174 0.007535971 0.11706307 -0.020011555
000020 73 3d 37 3e 65 e5 3e bb b3 0f 22 be b8 37 10 3d
       0.17894535 -0.002912843 -0.15826301 0.035209388
000030 c4 14 f0 bd 54 18 8c 3d a6 8d 04 3e a6 26 94 3d
       -0.11722711 0.06840578 0.1294466 0.07233934
000040 92 7b 92 3d 38 e8 0b bd 88 bb 01 3d f5 61 67 3d
       0.071524754 -0.034157008 0.031672984 0.056489903
000050 fc f3 f5 bc 72 03 13 be 3a 16 4b 3d d3 77 bf 3b
       -0.030023567 -0.14356783 0.049581744 0.0058431416

backbone.model.1.conv.2.bn.running_var f4 [24]
000000 3f 7a 82 3d 1e c2 82 3e d0 7e ed 3d 64 bd ea 3d
       0.06370973 0.25538725 0.11596453 0.11461905
000010 ab 4d 58 3e 34 60 25 3e c1 aa 08 3e 17 72 2f 3e
       0.21123378 0.1614998 0.13346387 0.17133366
000020 08 50 80 3e 67 c9 e2 3d ba 63 c0 3d 98 86 4e 3e
       0.2506106 0.11073571 0.09394021 0.20168531
000030 55 a2 ae 3d 6e 3c 1b 3e df 8b ed 3d aa 73 08 3e
       0.08527056 0.15159771 0.11598944 0.13325372
000040 4b 21 c8 3d 7e 37 bb 3d 2c 2c cf 3d 0f 34 cc 3d
       0.09771975 0.09141444 0.10115847 0.09970867
000050 93 5f be 3d b0 97 43 3e 72 f1 10 3e 42 bd 0a 3e
       0.09295573 0.19100833 0.14154604 0.13548759

backbone.model.1.downsampling.conv.weight f4 [24, 16, 1, 1]
000000 7d 8c 16 be 3c 9a 17 be 58 03 07 3d 1f 5a 2c 3e
       -0.1470203 -0.1480493 0.032962173 0.16831253
000010 08 df 17 3e ba 10 42 3d dd 8e 52 3e 78 d4 83 3c
       0.14831173 0.047379233 0.2056231 0.016092524
000020 b7 2b 4e be 18 f1 11 be b7 13 af bd 0b 58 35 3e
       -0.20133863 -0.14252126 -0.08548682 0.17709367
000030 54 1a b2 3c 59 87 64 3e df 05 57 be 02 cc 04 3e
       0.02174107 0.22317256 -0.20998333 0.12968448
000040 64 74 30 3e ad 8c 08 3e 76 aa c0 3d 6a e4 18 3e
       0.172319 0.13334914 0.09407513 0.14930883
000050 cb 61 38 be 91 6f 8b bc 34 ad c0 bc cc 28 18 3e
       -0.18006055 -0.017020972 -0.02352009 0.14859313
000060 c8 aa b8 bc ca 70 82 bd 57 83 07 be 76 fc 6e bd
       -0.022542372 -0.06369169 -0.13233696 -0.058346234
000070 5d 27 b2 bc 52 bc 7d 3e 5a 73 e8 3d 50 fd 35 3e
       -0.021747286 0.2477887 0.113501266 0.17772412
000080 ea 28 92 b9 fa 54 d5 bd d5 ce 44 3d 62 ce 7f 3c
       -0.00027877773 -0.104165986 0.048048813 0.01561317
000090 ec ab 5a 3e 07 19 1f 3e c8 f1 f3 bd 64 0c ae bc
       0.21354645 0.15536891 -0.119113505 -0.021246143
0000a0 6a ae a7 bd c8 64 54 be 7d e9 0d be 4b d0 64 be
       -0.08187564 -0.2074157 -0.138586 -0.22345082
0000b0 a3 85 06 be f0 59 20 be 72 ec 61 be cb c8 6c 3d
       -0.13136916 -0.15659308 -0.22062853 0.05780868
0000c0 9e 4e 3c be 5f 2d 6a 3e 39 77 e9 bd 8c b1 23 be
       -0.18389365 0.2286887 -0.11399693 -0.15985698
0000d0 4e d7 45 3e 19 c9 cf 3c fc 13 0a be 4f a3 30 be
       0.19320413 0.025364446 -0.13484186 -0.17249797
0000e0 93 8e 08 3d d0 6a 86 bd 93 55 4f 3e 84 46 b4 bd
       0.033339094 -0.065633416 0.20247488 -0.08802512
0000f0 0f ee 83 3c b5 17 09 bd 0e 91 9d bd 37 bd 30 be
       0.016104726 -0.033469874 -0.076936826 -0.1725968
000100 cf 61 fe 3d 49 dc 6b 3d 76 aa 8a 3b f9 86 21 be
       0.12420999 0.057583127 0.0042317463 -0.15774144
000110 2d 3c 73 bd 6a f6 2a be fc 07 21 3e 2a 7a 2f 3e
       -0.05938356 -0.16695562 0.15725702 0.17136446
000120 4b 60 29 be ce 05 69 3d 20 90 74 bc 72 84 68 be
       -0.16540639 0.0568903 -0.01492694 -0.22706774
000130 73 33 44 3e 5d 57 ff bd 4e 5e 10 be dd fa 64 be
       0.19160251 -0.12467835 -0.14098474 -0.22361322
000140 31 cd 72 3e 59 15 1f 3e af 22 30 3d d3 30 4d 3e
       0.23711087 0.15535487 0.043001827 0.20038156
000150 44 52 8c bc 3b fb 94 3d ea d1 5d 3e e2 dc d2 bd
       -0.017129071 0.07274481 0.21662107 -0.10296036
000160 bc b3 4e be dc d7 db bd 28 ac 42 be ad 8d 7b bd
       -0.2018575 -0.10734531 -0.19010985 -0.06141441
000170 eb 09 49 be b2 b0 57 3e b1 e0 23 be 66 b9 24 3e
       -0.1963269 0.21063498 -0.16003682 0.16086349
000180 d0 23 9d 3d 73 9a 68 3e a8 50 3d 3e e5 61 1c be
       0.07672846 0.22715168 0.18487799 -0.15271719
000190 f5 1d 5c be 6b 5b 1d be 53 97 2f bc 5d d0 29 be
       -0.21495803 -0.15366904 -0.010717231 -0.1658339
0001a0 36 00 48 3e bc cc 92 3d bd 73 4f 3d 2b cd 4e 3d
       0.1953133 0.07167956 0.050647486 0.050488632
0001b0 6d 43 3f be cd b0 30 bd 04 18 19 3e 55 b3 f8 bd
       -0.18678065 -0.04313736 0.14950567 -0.1214358
0001c0 d5 82 1a 3e f2 49 78 bd 64 84 54 3e 0b bb 2d bd
       0.15088971 -0.060617395 0.20753628 -0.042414706
0001d0 f2 92 ff bc 07 cc e3 bd 2c 4c 5e be de 8a 48 3d
       -0.031197999 -0.111228995 -0.21708745 0.04896056
0001e0 f4 5e 5f 3e f5 a8 19 3d 01 fb 39 3e 06 53 5f 3e
       0.21813565 0.037514646 0.18162157 0.21809015
0001f0 0b 8f a9 bb e7 81 e3 bd b4 95 18 be 8c 87 2a 3e
       -0.0051745228 -0.11108761 -0.14900857 0.1665327
000200 21 db 7f 3d b6 9a 29 3e d7 1d 62 3e f0 1a aa 3d
       0.062464837 0.16562924 0.22081695 0.08305919
000210 09 40 5c 3d 97 3f b2 bc 67 dc f8 bc f9 2f 0f 3e
       0.053772006 -0.021758838 -0.030378534 0.13983144
000220 86 9e 49 3e 75 55 f8 3d 26 c6 24 bd 46 2d 1d be
       0.19689378 0.12125675 -0.04022803 -0.15349302
000230 8c 85 6a 3e f8 66 ba bc 91 d9 01 3e 76 6b 5e 3e
       0.22902507 -0.022754177 0.12680651 0.2172068
000240 81 ee 16 be 16 4a 73 be a9 99 2e 3d 84 84 3b 3e
       -0.1473942 -0.2375873 0.04262701 0.1831227
000250 4c c3 3a 3d 73 37 88 3d b9 53 28 be 8c 18 61 be
       0.045596406 0.06651201 -0.16438188 -0.2198202
000260 e9 82 1e 3e 1d e6 8a bd c9 14 66 be 25 b5 d4 bd
       0.15479626 -0.06782172 -0.22468866 -0.10386113
000270 3d 24 d0 3d ee 4a 79 3b 68 cd a2 3d 11 c1 a0 bd
       0.10163162 0.0038039046 0.079493344 -0.078493245
000280 6f 43 43 be c2 32 49 bd f2 9e 57 3e 07 e4 ae 3d
       -0.19068693 -0.049120672 0.21056727 0.085395865
000290 a5 a1 51 3e 69 f3 63 be e7 00 67 3e aa 67 bf 3d
       0.20471819 -0.22260822 0.22558938 0.09345944
0002a0 01 0e 2b be 2d 5f 94 bd bc 5f 46 3e df 6f d7 3d
       -0.16704561 -0.07244716 0.19372457 0.105193846
0002b0 e4 d5 19 be 3c d8 79 3e 96 62 21 be b5 d0 3d be
       -0.15022999 0.24398893 -0.15760264 -0.18536647
0002c0 23 51 0c be 5d 7c 55 bd ac c0 b6 3d c6 e6 3a 3e
       -0.13702826 -0.052120555 0.08923468 0.18252096
0002d0 99 23 04 3e 70 b5 5a 3b be 88 09 3e 72 b6 2f 3e
       0.12904204 0.0033372305 0.13431069 0.17159441
0002e0 2e 28 02 be 2d ae 71 be b1 61 f1 3c 10 36 33 3e
       -0.1271064 -0.23601599 0.029465528 0.17501092
0002f0 18 74 29 be 5d 1b 9c 3c 09 d3 1f 3e c9 f4 c8 bd
       -0.16548193 0.019056017 0.15607847 -0.09812314
000300 46 0e 8e 3b f0 6f 2d 3e 5a 6f d1 3d 66 6b 84 bd
       0.0043351976 0.16937232 0.10226317 -0.06465797
000310 d0 d9 d3 3d 58 9e 53 be a7 23 6d be de 38 eb 3d
       0.10344279 -0.20665872 -0.23158132 0.11485456
000320 c1 5f 4f 3e 43 1b c3 bd 8e 28 48 be 4f 4a cc bd
       0.20251371 -0.09526684 -0.1954672 -0.09975111
000330 a0 6f ee bd 5a 7d e1 3d 05 a3 22 3e 79 b4 5e 3e
       -0.116423845 0.11010237 0.158825 0.21748532
000340 8b 29 8c 3d 41 24 45 be d8 ae e4 bd bf 20 f9 3d
       0.06843861 -0.19252111 -0.11166161 0.12164449
000350 4c 46 e3 3c b5 41 19 3e ef f8 a7 3c a0 2b 1e 3e
       0.027743481 0.14966471 0.020504443 0.15446329
000360 27 58 3e 3d 72 b9 2f be 10 87 6b be 1c 53 8f bd
       0.046470787 -0.17160586 -0.23000741 -0.06998274
000370 8d df 5c 3e 77 bb 2e be 34 91 35 be f4 79 07 be
       0.21569653 -0.170637 -0.17731172 -0.13230115
000380 99 04 28 be ec c0 8f bd c5 99 31 3e 3d 80 bc 3d
       -0.16408004 -0.07019219 0.17343815 0.09204147
000390 0c 8e a3 bd 66 a4 41 3e e3 1b f4 3c 85 be aa 3c
       -0.07986078 0.1891037 0.029798454 0.0208428
0003a0 b4 a2 0a be 0b 5e d2 bd e1 2f 5d be c5 f2 02 3e
       -0.13538629 -0.102718435 -0.21600296 0.12787922
0003b0 9d 20 12 bd 6f 54 2e be e3 82 96 bc ac e1 19 be
       -0.035675634 -0.17024396 -0.018372959 -0.15027493
0003c0 dd 00 42 be 62 fe ee bd d4 a0 ed bd 95 4c 9d bc
       -0.18945642 -0.116696134 -0.11602941 -0.019201556
0003d0 74 15 ec bd 49 dd 61 3d 3c e6 6c be 84 af 56 3e
       -0.11527529 0.055142675 -0.23134702 0.20965391
0003e0 84 31 19 be 80 2e a6 3d 14 77 37 3e 95 75 d4 bd
       -0.14960295 0.08114338 0.17916518 -0.103739895
0003f0 41 b3 23 be 00 9e 4e bd 93 f2 be bd 18 ac 6d 3e
       -0.15986349 -0.05044365 -0.09323611 0.2321018

backbone.model.1.downsampling.bn.weight f4 [24]
000000 5e 6a 79 3f 69 25 7a 3f 70 aa 79 3f 3e 30 79 3f
       0.9742793 0.97713333 0.9752569 0.97339237
000010 0d 4a 79 3f 8f a4 79 3f 33 c7 79 3f 5c 1e 7a 3f
       0.9737862 0.9751672 0.9756958 0.97702575
000020 70 25 7a 3f c2 33 7a 3f 01 62 7a 3f 88 9b 79 3f
       0.97713375 0.97735226 0.9780579 0.97502947
000030 6e e4 7a 3f c6 3a 79 3f 9d 78 79 3f 2a 66 79 3f
       0.98004806 0.97355306 0.97449666 0.97421515
000040 76 cb 79 3f 2d df 79 3f 5d 94 79 3f 7f 89 79 3f
       0.9757608 0.97606164 0.9749201 0.9747543
000050 9f 55 79 3f a3 cd 79 3f a7 5d 7b 3f 5b f6 79 3f
       0.9739627 0.975794 0.9818978 0.97641534
