weights/military_civil_clf2.pt (torch, 709461 bytes, 152 tensors)

backbone.model.0.conv.0.conv.weight f4 [12, 3, 3, 3]
00000000: ebda c7bc de29 183e 6a81 363e 2981 c13c
00000010: 080e 23be bc77 b0bd 2fd9 3cbe 12ef 173e
00000020: d428 93bd 7146 e33d e1ae 023e fd41 b6bc
00000030: 9a30 843d b260 f73d 712b edb9 a72f ac3d
00000040: 33d1 89bd 34e6 2dbe 8903 8d3d 80ec 283e
00000050: f59d 4abd 1e4a 89bd d9dd fcbd d421 a7bd
00000060: 0dc7 ab3d 07ec 1dbe b2fd 353e d0ea 183e
00000070: 8c02 103c c54a 49bd b431 cfbd 2890 833d
00000080: 0a74 28be 9945 9cbc d717 b23c b294 b438
00000090: 4442 93bd 2885 7e3d b727 a6bd 91ab 03be
000000a0: f831 283b 5cfa ccbc 6228 25be 5518 adbb
000000b0: 3472 22bc 5473 09bd 2767 243d 255b 953d
000000c0: b346 31be 6cb2 cabd ced4 ce3d 30ce 663d
000000d0: 30dd f73c 28dd abbd 68dd 9d3d 274c 35be
000000e0: 987a 8f3d a73b 12be 9df0 1dbe 1138 29be
000000f0: 20f6 07be ae2f 13be 7402 bbbd 53bc 333d
00000100: 924a 383e e9d2 12be 28b8 5a3d 0665 353e
00000110: 1f27 0dbe 00f3 91bd 4715 a73d bdf8 02bd
00000120: dd90 93bd 68ad 0abd b7f7 84bd 0661 99bd
00000130: 6540 92bc 6ded a23d fd0e 8dbd 6720 003e
00000140: 59be 1c3e 0d07 ee3d 7213 323e ebcd ebbd
00000150: e71c eb3d 0d06 6e3c a9ac 60bd cfdc 21be
00000160: 7097 c8bd 1efc afbc 748f e7bd afe3 a63d
00000170: 0071 fb3d 07da 3f3e 8d6a de3d e224 3f3e
00000180: 35b3 d7bd 6e95 bcbd 92f6 a5bc 142f 57bb
00000190: 1d05 82bd ef90 d0bd 5c4a 38be 84c0 353e
000001a0: 0124 1c3e bbc5 e1bd b3a3 b6bd ff2d 4c3d
000001b0: 0f96 6b3c 2dc1 34bd 9e37 503d 0987 3bbe
000001c0: d67e 373e 185f 3dbe e57b f43d fd3c f8bd
000001d0: bc85 f03d 9b4d e3bd 864e 35be 9220 253d
000001e0: 098c 06bd b4e8 8dbd c550 183d e9a3 31bd
000001f0: dbc4 4ebb 8f81 8d3d ed9d b53c ff84 003e
00000200: b6d2 b5bb bf77 37bc 092b 233e f3f5 0b3e
00000210: fb70 d6bd bf1d 823d 146d c53d 0756 363d
00000220: 5bd5 38be 4c35 56bc 517e 47be b7f0 25be
00000230: accd 08be 8094 d2bd d3a3 37be df4a 20be
00000240: 1f03 053e 7353 2a3e 2076 e6bd fb56 a4bd
00000250: 874a ce3d 4ef1 e53b d9e9 953d 21ab bc3d
00000260: c8dd a03c 974f 02be cec7 2a3e 0e4e 1a3e
00000270: bfa0 ebbd 0ee4 2c3e ca8a 3f3c 10d9 173e
00000280: 7a0f 9c3d d6c8 d13a dd1e 233c 8107 5bbd
00000290: 5f38 15be 429a eb3b d878 013e 8372 943d
000002a0: ff61 4ebd c2d0 08bd 1323 053e 98a3 a1bc
000002b0: 1d1e 72bd 632c b6bd eec1 0cbe e151 a9bd
000002c0: 6e66 1dbe a5a7 0dbe c616 42be f08a 363e
000002d0: b334 aebd da4e a2bb 6d31 843d 274e 203d
000002e0: 6518 3a3e 48c0 1cbe 08ed b3ba 9e0f 09be
000002f0: 7fe8 f13d c165 2fbe 0c81 f9bd 3b5c 173e
00000300: 6d8c ebbc d422 e9bc 8816 07be f03b 003e
00000310: 7643 3f3e 5241 b7bc 0180 52bd 2b2c 26be
00000320: 54d4 183d 5fff 05be 03ed 363e 7c3c 59bd
00000330: 6bed 2cbe 2b85 f13d b554 ca3d ed92 a43d
00000340: 1f90 cdbc cf28 83bc 1f83 9abd 4c7f f5bd
00000350: 26e3 083e bb7c d2bd c11a 533c 5698 abbd
00000360: b244 3f3e 0d80 323e 2b6e b23d 3936 82bc
00000370: 15ad 223e c00a bfbd 9194 0bbc 7468 2cbe
00000380: b31e 26be 2d8c 6a3d 6da8 fb3d cec4 39be
00000390: 6e27 19be 09b8 ac3b 51f6 0e3e 8b9b 37be
000003a0: 7bba 323e 35d3 1cbe 2146 e5bd 3fef ad3d
000003b0: 3e6c aabd b010 3bbd dd2a e7bd 220d 46bd
000003c0: a7ee 31be 927a ca3d ca79 5c3c fbfa 87bd
000003d0: a574 b5bc e461 30be b73b 1dbd 0c5b 08bd
000003e0: edea ad3d e2fb 333e 4b90 973d 5fe3 9dbd
000003f0: c56f f33c 29c4 563d c1ac 81bb 15e3 023e
-0.02439638 0.14859721 0.17822805 0.023621159 -0.15923321 -0.086165875 -0.18442224 0.14837292
-0.07185522 0.1109742 0.12762024 -0.022248263 0.064545825 0.1207899 -0.0004523653 0.084075265
-0.06729355 -0.16982347 0.0688544 0.16496468 -0.049467046 -0.0670359 -0.123470016 -0.08160749
0.08387575 -0.15422069 0.17772558 0.14933324 0.00878967 -0.04914357 -0.10116902 0.0642398
-0.16450515 -0.019076155 0.021739883 8.6107655e-05 -0.071903735 0.062138706 -0.08113044 -0.12858416
0.002566455 -0.025021724 -0.16128686 -0.0052824416 -0.009914923 -0.03355725 0.040137436 0.07292775
-0.17312126 -0.098973125 0.10099183 0.05634898 0.030256838 -0.083917916 0.077082455 -0.17704831
0.07005805 -0.14280568 -0.15423818 -0.16525294 -0.13277483 -0.14373657 -0.09131327 0.04388077
0.17997196 -0.14338268 0.05339828 0.17714319 -0.13784455 -0.07126427 0.08158355 -0.031975497
-0.07205365 -0.03385678 -0.0649256 -0.07489209 -0.017852971 0.079554416 -0.068876244 0.1251236
0.15306987 0.116224386 0.1739023 -0.11513885 0.11480122 0.01452781 -0.05485216 -0.15806888
-0.097945094 -0.021482524 -0.113066584 0.08148896 0.122774124 0.18735515 0.10860167 0.18666413
-0.10532228 -0.09208189 -0.020259175 -0.0032834457 -0.063486315 -0.10183894 -0.17997116 0.1774922
0.1524811 -0.11024042 -0.08917942 0.049848553 0.0143790385 -0.04412954 0.05083429 -0.1831323
0.17919478 -0.18493307 0.119376935 -0.121210076 0.11744258 -0.110987864 -0.17705736 0.040314265
-0.03284839 -0.0692915 0.037186403 -0.043369208 -0.003155044 0.06909477 0.022170031 0.12550734
-0.0055488003 -0.011197983 0.15934385 0.13668041 -0.10470768 0.0635333 0.096399456 0.044515636
-0.18050139 -0.01307423 -0.1948178 -0.16205107 -0.13359708 -0.102822304 -0.17933588 -0.15653561
0.12989472 0.16633396 -0.11252999 -0.08024403 0.10072809 0.007017291 0.073199935 0.09212328
0.019637004 -0.12725674 0.16677782 0.15068838 -0.11505269 0.16883871 0.011690805 0.14828897
0.076201394 0.0016005288 0.009956089 -0.053473953 -0.14572285 0.00719002 0.12643754 0.07248404
-0.050386425 -0.033402212 0.13001661 -0.019731328 -0.05911075 -0.08895185 -0.13745853 -0.0826757
-0.15371105 -0.13833483 -0.18954 0.17826438 -0.08506145 -0.0049532475 0.0645474 0.039137032
0.18173368 -0.15307724 -0.0013727257 -0.13384864 0.11811923 -0.1712866 -0.12182817 0.14781277
-0.028753484 -0.02845899 -0.13192189 0.12522864 0.18678078 -0.022370014 -0.051391605 -0.16227786
0.037311867 -0.13085698 0.1786385 -0.053036198 -0.16887443 0.11792978 0.09879438 0.08035836
-0.025093136 -0.01601067 -0.075445406 -0.119871706 0.133679 -0.10277697 0.012884797 -0.08378665
0.18678549 0.1743166 0.08712419 -0.015894996 0.15886338 -0.09328222 -0.008519308 -0.1683672
-0.16222648 0.05726259 0.12287984 -0.18141481 -0.14956447 0.005270962 0.1396115 -0.17930429
0.17453949 -0.15314944 -0.11195017 0.08492898 -0.08321427 -0.04567021 -0.112874724 -0.04835237
-0.17376195 0.0988666 0.013456771 -0.066396676 -0.022150347 -0.17224842 -0.038387027 -0.033289954
0.08492074 0.17576554 0.074005686 -0.07709383 0.029716382 0.052433167 -0.0039573614 0.12781937

backbone.model.0.conv.0.bn.weight f4 [12]
00000000: 2c54 7b3f 174f 7b3f 951e 7b3f a8ca 7a3f
00000010: 8532 7c3f 121b 7c3f 6644 7c3f 88e8 7b3f
00000020: 2372 7a3f d193 7b3f 0080 7b3f e7c2 7a3f
0.9817531 0.98167557 0.9809354 0.9796548 0.98514587 0.98478806 0.9854187 0.9840169
0.9783041 0.98272425 0.9824219 0.9795365

backbone.model.0.conv.0.bn.bias f4 [12]
00000000: 0fc4 a8ba a812 15b9 9259 b03b 9895 3a3a
00000010: f719 ab3b d7c7 713b e081 0a3b 7fea 723b
00000020: 80fd 1dbc d3ec a3bb f820 d6bb 07c8 233b
-0.0012875813 -0.00014216697 0.0053817714 0.0007117628 0.005221601 0.0036892795 0.002113454 0.003706604
-0.009642959 -0.005002597 -0.006534692 0.0024991052

backbone.model.0.conv.0.bn.running_mean f4 [12]
00000000: 8156 be3d 9f28 7abe cff7 87be 5a30 893d
00000010: 90ef 8a3d 9786 7abd 3f90 7abe 3e88 19be
00000020: a7b5 28be e26a 853c 368e 25bd 5707 8abe
0.09293843 -0.24429558 -0.2655625 0.066986755 0.06783974 -0.06116351 -0.24469088 -0.14993379
-0.16475545 0.016286317 -0.040418826 -0.26958725

backbone.model.0.conv.0.bn.running_var f4 [12]
00000000: 7abc d13b 5d4a 2c3c 5674 523c f9ef a93b
00000010: ebc5 673b aec8 cc3b 99eb 393c 7232 e53b
00000020: ae8b 0c3c 2661 8e3a adfd 503b d6d6 633c
0.006400642 0.010515776 0.012845119 0.0051860777 0.003536577 0.006249509 0.011347675 0.006994539
0.008578224 0.0010862693 0.0031889484 0.013906201

backbone.model.0.conv.2.conv.weight f4 [16, 12, 1, 1]
00000000: 6fb0 a3bd 9028 4a3e 4972 73be 5baa d83d
00000010: b1c4 1a3e aacb 0a3e 2bcd d93d 385a 473c
00000020: b3bf 5e3d 755c 273e b61d d63d 287c be3d
00000030: b577 8cbe f700 903e b09c f1bd 4df4 a1bd
00000040: 56c1 243e 91a6 da3c 8c93 05be 5adb 083c
00000050: 295e d1bd bd79 73be 0b07 2e3e aea1 85be
00000060: 88b1 ddbd 8dc9 e43c 3371 86bc 4276 04be
00000070: e970 37be ba20 8b3e 1a82 5e3d 9d06 f9bd
00000080: f3ac 3f3e 9bc4 113e 4b71 05be faab bebd
00000090: 37e2 83bd 7bd3 7bbd c450 41be d6ac 1e3e
000000a0: 4cfb 573d df46 cd3d 0440 09be 92e7 b53d
000000b0: 89d1 55bd 5f25 173d ee9e 8bbb 0620 2bbb
000000c0: cadf e6bd e83d 06bc 3828 213e 75fa eebd
000000d0: 7f9d 02bd 2c1a 5dbe aca1 493d 59dd 123e
000000e0: 3a21 533e 5166 cebd 070d 27be 4869 b43d
000000f0: c520 53be 2d87 e63d c70c e7bd a747 15be
00000100: 86a2 223e f26d 1dbc abb2 69be 5870 b8bc
00000110: bf96 6d3e 47ff c83d d947 113e a919 763e
00000120: 35ac e7bd f180 73be e60d 53be 81ac cc3d
00000130: d731 cdbd 855c c9bd 8dab 70be d038 23be
00000140: d5c8 c3bd 8f7e 793d a24f e2bd 6c14 773d
00000150: 2e75 70be cca4 383e 128a 8ebe 9915 30be
00000160: 79d4 1f3e 2f2a 44bd d5f3 06be 15be 31bd
00000170: 5d1f 5d3e 9f06 8c3d 84ba 2a3e 57d2 47be
00000180: d003 753c 1416 3c3e 2849 bcbd e16e b9bd
00000190: 138d 78bd 0859 ce3d 2a04 08be b11f 91be
000001a0: 35b9 823e 096b e33d b538 1bbe ef61 d3bb
000001b0: ca8c 783e 3e7d 01bd 2cca f93c 8928 c93d
000001c0: e88f 21be f786 a93d b3ba 06bb c9d0 09bd
000001d0: 28c9 5fbd 87ff 633e c6e9 f2bd a83e fdbc
000001e0: 39e1 223e 4ea0 b03d 0cd8 503d d748 223d
000001f0: e1d1 093e 2e7e 6c3e e03b f4bd eb83 563e
00000200: d681 17be b79d 893e 51f4 5c3e bb20 b13d
00000210: 78fe b03c b90a 4c3e f561 33bc 4c87 24be
00000220: 2d88 ebbd dbac cf3d 5ef1 963d 87f9 3b3c
00000230: 6ca9 87be cf81 b5bd b390 6b3e c3dd 573d
00000240: 44dc 663e abb1 33be 92ac 2b3c 1cc1 2a3e
00000250: 6a55 debd b663 8239 7fe8 813e b0f1 1a3d
00000260: 3ec8 66bd 09b6 1a3e 6849 d5bd 53f4 a8bd
00000270: da22 c6bd 393f ac3d 7910 8c3e c1cc 9a39
00000280: a29e db3d 2789 4cbe c115 4bbe deff 863c
00000290: 35ce 0a3e 67d0 463e c18e 7cbe dd75 e73d
000002a0: cee7 98bd ee41 0fbe 389f 1dbd 0ffe 91be
000002b0: f9a7 333e adff 223e 4e73 4a3e d352 c13d
000002c0: 5765 18be 51a0 593e f5d5 28bd 6f85 ccbd
000002d0: 0b1e 7ebe 1e36 44be 7271 4f3e c422 313d
000002e0: 40a8 5c3e c7d4 a93d fd5e ee3d 58ee 15bd
000002f0: 9547 88be 14fe 8ebe 09bc 943d 6a89 a9bd
-0.079926364 0.19742036 -0.23774065 0.10579368 0.15114094 0.13554254 0.10634836 0.012167506
0.054382037 0.16343863 0.10454886 0.09301025 -0.2743508 0.28125736 -0.11797464 -0.07907925
0.16089377 0.026690753 -0.13044566 0.008353079 -0.10223038 -0.23776908 0.16994874 -0.26099914
-0.10824877 0.027928138 -0.0164114 -0.12935737 -0.17914166 0.27173406 0.054323293 -0.121594645
0.18718319 0.14235155 -0.13031499 -0.09310146 -0.064396314 -0.06148098 -0.18878466 0.15495619
0.05272989 0.10023283 -0.13403326 0.08882059 -0.05220178 0.036900874 -0.0042608893 -0.0026111617
-0.11273153 -0.008193471 0.15737998 -0.11668865 -0.03188848 -0.21592015 0.049226448 0.1434225
0.20618144 -0.10078109 -0.16313563 0.08809143 -0.2061797 0.112562515 -0.11281734 -0.14578114
0.1588231 -0.009608733 -0.22822063 -0.022514507 0.23202036 0.09814315 0.14187564 0.24033226
-0.11312143 -0.23779656 -0.2061077 0.0999384 -0.10019272 -0.098321 -0.23502941 -0.15939641
-0.0955979 0.06091171 -0.11050345 0.06032221 -0.234822 0.18031615 -0.27839714 -0.17195739
0.15608396 -0.047891792 -0.13178952 -0.043394167 0.21593995 0.068372004 0.16672713 -0.19513832
0.014954522 0.18367797 -0.09193641 -0.090543516 -0.060681414 0.10075575 -0.13282838 -0.2834449
0.25531927 0.111044 -0.15158351 -0.0064508836 0.24272457 -0.03161358 0.03049191 0.098221846
-0.15777552 0.082776956 -0.0020558059 -0.03364638 -0.054635197 0.22265445 -0.11860995 -0.030913666
0.15906228 0.08624326 0.05098729 0.039620247 0.13458969 0.23095009 -0.11925483 0.2094876
-0.14795622 0.2687814 0.21577574 0.08648821 0.021605715 0.19925965 -0.010948648 -0.16067237
-0.11500583 0.101403914 0.07370256 0.011473066 -0.26496446 -0.0886265 0.23004417 0.052701723
0.22544962 -0.17548244 0.010478156 0.16675228 -0.10856135 0.00024869823 0.25372693 0.037828147
-0.05634331 0.15108503 -0.10414392 -0.08249726 -0.09674616 0.08410496 0.27356318 0.00029525722
0.10723616 -0.19974194 -0.19832517 0.016479429 0.13555224 0.19415437 -0.24663831 0.113017775
-0.07466088 -0.13989994 -0.03848192 -0.28514144 0.17544545 0.15917845 0.19770548 0.094396256
-0.14882408 0.21252562 -0.04121967 -0.09986388 -0.24816148 -0.19161269 0.2025812 0.043246046
0.21548557 0.08292537 0.11639211 -0.036604255 -0.26617113 -0.2792822 0.07262427 -0.08278163

backbone.model.0.conv.2.bn.weight f4 [16]
00000000: afb5 793f 5852 7a3f 4863 7a3f 6e27 7b3f
00000010: 309f 7a3f cd9c 7a3f 1d6e 7a3f 28a8 793f
00000020: 7ec6 7a3f b3d5 793f 5a0d 7b3f b0a4 7a3f
00000030: 81d5 7a3f f4dc 793f 0286 7a3f 0f19 7a3f
0.9754285 0.97781897 0.9780774 0.9810704 0.9789915 0.9789551 0.9782427 0.9752221
0.97959125 0.97591704 0.9806725 0.97907543 0.9798203 0.9760277 0.9786073 0.97694486

backbone.model.0.conv.2.bn.bias f4 [16]
00000000: de6d 1d3c faf9 093c d522 8aba cef7 bcba
00000010: b008 74bb 0712 c6bb 2613 8f3c 3639 003c
00000020: 46ce d13b a16e e6ba c35c 863b 237d 023c
00000030: a14d 6a3a e91b 47bb 03bb 053b eb38 8e3b
0.009608714 0.008421415 -0.0010538945 -0.0014417113 -0.0037236623 -0.0060446295 0.017465185 0.00782614
0.0064027635 -0.0017580577 0.0041004135 0.007964405 0.0008937959 -0.0030381626 0.0020405657 0.0043402812

backbone.model.0.conv.2.bn.running_mean f4 [16]
00000000: 66b7 1f3e 92fd d4bd 4ce7 b7bc ea7f c4bc
00000010: 9646 aebb 5934 4a3d a521 79be fd8a 91bd
00000020: b762 18bd be24 193d 843c 6e3e 6109 943c
00000030: e0ab 653d 4a95 183d f892 1abb 34c7 7dbd
0.15597305 -0.10399927 -0.022449158 -0.023986775 -0.005318473 0.04936633 -0.2432924 -0.07106588
-0.037203517 0.037388556 0.23265272 0.018070878 0.056072116 0.03725175 -0.0023586135 -0.061957553

backbone.model.0.conv.2.bn.running_var f4 [16]
00000000: 776a 9f3d 15f4 c23d 6df0 553d d025 6b3d
00000010: a4b8 0a3e 6d39 763d 7c37 a73e 946a 4d3d
00000020: fcde 753d 0118 a23d 88c0 183e d50d e93d
00000030: 10e7 893d dd94 a53d 740d 053e 60b1 e93d
0.077839784 0.09519211 0.05223124 0.057409108 0.13546997 0.06011336 0.3265952 0.05015047
0.060027108 0.07914735 0.14917195 0.113795914 0.06733525 0.08085034 0.12993413 0.11410785

backbone.model.0.downsampling.conv.weight f4 [16, 3, 1, 1]
00000000: 6022 093f 6b98 acbe 805c 5fbe 2402 f43e
00000010: f2d8 64bd ae0f 8fbd 474b c1be 7856 12be
00000020: b524 363e 5761 cabe 054c e73d 1a92 983d
00000030: f56b 923e 116d 093f 639a f6be d756 f73e
00000040: e6e4 04bf 553f 933e 8f6d 01bf f2c0 053f
00000050: aefc 45be 09ef 8cbd 846b f8bd 8059 bd3e
00000060: 5ded cfbe cd7d 91be b0ed cf3e 4836 113f
00000070: df41 c7be a7c9 d8be 2c8e c6be 9d88 873e
00000080: fb7d c2be 0cbf 15be 6ff4 50be 3d44 e4be
00000090: f910 943e 0190 6bbe 70c8 ffbe fefa ea3d
000000a0: f3f7 c33d ea95 c13e 34df f9be 202e 143e
000000b0: f7cc ecbe 0653 f8be e9f2 be3d 362e 8ebe
0.5356808 -0.33710036 -0.2181263 0.47657883 -0.055870958 -0.069854125 -0.37752745 -0.14290798
0.1778744 -0.3952739 0.112937964 0.07449742 0.2859799 0.5368205 -0.48164663 0.4830844
-0.5191177 0.28759256 -0.505578 0.52247536 -0.19334671 -0.0688153 -0.12129882 0.36982346
-0.4061078 -0.2841629 0.4061103 0.5672345 -0.38917443 -0.4234135 -0.38780344 0.26471415
-0.3798674 -0.1462366 -0.20405744 -0.44583312 0.289192 -0.23004152 -0.4995761 0.11473654
0.09568777 0.37809688 -0.48803103 0.1447072 -0.46250126 -0.48500842 0.09323675 -0.2776963

backbone.model.0.downsampling.bn.weight f4 [16]
00000000: 3c77 7e3f 032c 7a3f 9049 7a3f d47f 7a3f
00000010: 06ef 793f 7893 793f 5648 7c3f 1a36 7c3f
00000020: 7557 7a3f 6ded 793f ff4f 7d3f f62b 7a3f
00000030: c744 7a3f 97f2 793f a843 7b3f 7075 7a3f
0.9940069 0.97723407 0.977685 0.978513 0.97630346 0.97490644 0.98547876 0.9852005
0.977897 0.9762791 0.9895019 0.9772333 0.97761196 0.9763579 0.9815011 0.97835445

backbone.model.0.downsampling.bn.bias f4 [16]
00000000: 0c4f 7b3c 9929 2339 ceec ba3b 5f33 1c3b
00000010: 090c 9ebb 4f94 f0bb a8bf 993c fc15 3a3c
00000020: 959b e13b 9c25 e33b 3662 a73b cb18 943b
00000030: 8618 083c 7240 b6bb 3c19 ad3a 38df 663b
0.01533867 0.00015560388 0.005704499 0.002383433 -0.004823212 -0.0073418985 0.018768147 0.011357781
0.006885002 0.0069319736 0.005108143 0.004519557 0.008306628 -0.0055618817 0.0013206373 0.0035228264

backbone.model.0.downsampling.bn.running_mean f4 [16]
00000000: 7ffe 9abc dd0b 0d3e 62f9 09be 0db9 a2bd
00000010: 75a1 073e 41d8 cc3d 5c13 8abd 7a50 a33d
00000020: 5e5f dcbd efa4 ecbd af1c 54be b3da aabe
00000030: 26c1 45be 8802 7d3e 4a3a aabe 3f35 8cbe
-0.018920181 0.13774057 -0.13474038 -0.07945452 0.13245185 0.10002185 -0.06741974 0.07974334
-0.10760377 -0.11554896 -0.20714067 -0.3336998 -0.19311962 0.24707997 -0.33247596 -0.27384374

backbone.model.0.downsampling.bn.running_var f4 [16]
00000000: 2f88 8a3a 1888 863b 6a02 833b 4697 d53a
00000010: a00e 9c3b f97d 0c3b 5464 a63a 9bb1 b43a
00000020: 484e 6c3b 760c 723b 0ecc f93b baa7 9d3c
00000030: 4bfc e73b 02f7 2c3c 6716 9f3c 0b9c 5b3c
0.001056915 0.004105579 0.0039980905 0.0016295693 0.0047624856 0.002143739 0.0012694695 0.0013785841
0.0036057401 0.0036933697 0.007623202 0.019245017 0.007079636 0.010556938 0.019419862 0.013403903

backbone.model.1.conv.0.conv.weight f4 [64, 16, 3, 3]
00000000: 9e4f 96bc a379 9cbd 155a 583d 605b acbc
00000010: ac90 6a3d 1d06 1fbd 0a53 97bd a3b5 073d
00000020: 3f2a 723d d1b7 1f3c e383 803d 96c0 17bd
00000030: 142a 52bd 7f64 85bd 5826 73bd 316b 98ba
00000040: 4ef7 263d dc62 72bd 24b0 e03c 838c 87bd
00000050: f944 86ba 7943 7f3b 2b14 8c3c dd42 9dbd
00000060: b691 a03c 8f2b d3bb fb4a 833c 68b6 763d
00000070: 0aa6 8b3d bfb7 5d3d 6338 ddbc 56b2 27bd
00000080: a62a 0d3d 49fa 2fbd e5e9 66bc 078c 11bd
00000090: 0a17 4d3c db33 a2bc 5150 533d d82f e7bc
000000a0: 12b3 7cbd a2ec 6abc 0b19 ea3c 1a1f a0bd
000000b0: 180c 9abd 330c 433d 124f 4c3a 7bb2 e63c
000000c0: a78c e13c c386 a83c e1ee 1a3d ee8a 643d
000000d0: 6ebd 71bd ec7b 3e3c 702f 6d3d bd70 6a3d
000000e0: 7047 803c b72c 9e3c 9cfe 383d b1e1 45bd
000000f0: 3fc8 ed3c e6a6 373d ab98 f8bc 7fab a13d
00000100: 3aeb 253d 8851 99bd 1aa7 ebbc d610 76bc
00000110: 14dd 453c 27f7 7abd 6019 843c f373 833d
00000120: eadc 86bd 7fa7 123c c0c9 093d 1209 52bb
00000130: f6cc 23bd 0734 8ebc d413 96bc f081 923d
00000140: 9106 4d3d 4fab 323d b6c2 3bbd 25c8 183d
00000150: a7d4 463d b8d1 c7bb d1c6 a73b cc76 493d
00000160: 03e9 20bc 410e 9f3c 1ffc 9b3c 9c15 ecbb
00000170: 215d fbbc f7db b53c d7c1 26bd 5c1f 953d
00000180: e960 933d 6802 51bd 0907 5a3d 2b47 47bd
00000190: a8c6 96bc 3ee6 ad3c 9097 d8bc 117b 98bd
000001a0: 9c3a 98bc e1a4 81bd ac7f 333d 595b 7cbd
000001b0: 614d e8bc db71 e1b9 a5ff 1cbd f7c6 5ebd
000001c0: 8a73 3c3c 8a0c afbc d3e7 94bd 046d a63d
000001d0: d3f1 213d 1797 5b3d 4d69 7a3d aacc 7ebd
000001e0: f198 23bd f1da 603d 9a6c 8bbd 8857 4abc
000001f0: 3dff f5bc ce7b 6e3d cea4 0a3d 5500 64bd
00000200: 9384 8b3b f92d 8a3d 885c f83c af31 8e3d
00000210: e8cc 0d3c 2156 603d 40aa 023d 3fc6 0e3d
00000220: 1e42 8abc a97e 663c dbb6 5bbd 67b2 3b39
00000230: 5664 c03c 8648 143b 36c5 a3bc f7fe 403d
00000240: f679 48bd 9922 a2bc 331d 81bd ee90 3c3d
00000250: fdbd 2fbd f9a8 54bc 374c 2a3d e2ad b73c
00000260: cf4a 8d3d fa55 0b3d 9ac3 a13c ee93 3bbd
00000270: 3ba3 16bd 6b8e d0bc 12cb 7fbc 10e1 b73b
00000280: c9d5 8b3d 0078 923d 6f93 71bc bd72 6b3d
00000290: 063d dc3c 5e9f 48bd c2a6 24bb 1b4a 443d
000002a0: a021 1c3d 5974 813d cc50 4ebc e96d 9fbc
000002b0: fe06 903c ff21 673d 866e 9bbc 74ea 08bd
000002c0: 5f26 7c3d 065d 9e3d 2a40 debc ff9c 29bb
000002d0: 5abc efbc af12 36bc e0fe e5bc 1580 4abd
000002e0: e61b 6bbd 21e6 b13c d6d2 f9bc 16f5 52bb
000002f0: bc93 163d 04d6 1dbd a4b9 513c c0d7 073d
00000300: 884c cc3c 92e8 a03d 8b02 023d 0bf8 103d
00000310: d82c ccbc c7b0 1ebc d679 bebb df47 9d3d
00000320: 5597 c83a 43d5 2cbb 1ae7 c53c 850a 72bd
00000330: 0ee6 18bd 0329 3cbd 4493 803d 1a18 a83d
00000340: cf8b 6bbc ecde ae3d 4de4 023d 752f 8d3d
00000350: e6ba 863d abcb 7a3d 2453 0cbd e720 b93c
00000360: 0090 283d ea5b 0f3d 8b6f 553d 88e8 583c
00000370: 07c2 883c 25bc 88bd 802d 77bd 45a2 c23c
00000380: 5569 cd3c e5d2 bebc d9b8 8bbc 5bfb 80bd
00000390: d2fc 7c3a 2e2f 413d 58ea 1b3d 3550 3dbd
000003a0: 8b39 8abb 26c3 78bd 7d2c 863c ca7c 8e3d
000003b0: c2f0 05bb 2844 93bd 8c5f 7bbd f897 813d
000003c0: f6fc 38bd f2ee 7dbd e5a3 543d 43ff 1ebd
000003d0: 0c75 a3bd 3c34 c4bc f1f2 2a3b c603 9d3c
000003e0: 6ed7 353d 58f9 593d 7bca eabc 3920 8a3d
000003f0: f23b b63b 5249 89bd 8925 8d3d 96e8 c4bc
-0.018348511 -0.07640388 0.052820284 -0.021039665 0.057266876 -0.03882419 -0.07388885 0.033132207
0.05912232 0.009748415 0.062751554 -0.0370489 -0.05130966 -0.06513309 -0.05936274 -0.0011628625
0.040763192 -0.05917631 0.02742774 -0.06618597 -0.0010243944 0.003895013 0.01709946 -0.07678769
0.01960073 -0.0064444016 0.016026964 0.06023255 0.06818779 0.054130312 -0.027004426 -0.04094156
0.0344645 -0.0429633 -0.014093851 -0.03553393 0.0125177 -0.019800117 0.051590268 -0.028221056
-0.061694212 -0.014338644 0.028576395 -0.07818432 -0.07521838 0.047619056 0.0007793765 0.028161278
0.027532889 0.020572072 0.03782547 0.055796556 -0.059018545 0.011626225 0.057906568 0.05723642
0.015659064 0.019308431 0.04516469 -0.04831094 0.029026149 0.0448369 -0.030346235 0.078940384
0.040507533 -0.07486254 -0.028766204 -0.015018662 0.012076635 -0.06127086 0.016125381 0.064186
-0.06585105 0.008951067 0.03363967 -0.0032048863 -0.039990388 -0.017358793 -0.018320002 0.0715369
0.05005509 0.043620404 -0.045839988 0.037300248 0.048542645 -0.0060979985 0.0051201363 0.04918556
-0.009821179 0.019415976 0.01904112 -0.0072047245 -0.030684056 0.022199614 -0.040712204 0.07281372
0.071962185 -0.051027685 0.053229365 -0.048651855 -0.018405274 0.021227952 -0.026439458 -0.07445348
-0.018582635 -0.06330276 0.04382293 -0.061610553 -0.02835721 -0.00043000173 -0.03832974 -0.054388966
0.011502156 -0.021368284 -0.072707795 0.08126262 0.039537262 0.053610887 0.06113558 -0.0622069
-0.03994078 0.0548963 -0.068078235 -0.012349971 -0.030028934 0.058223538 0.033848576 -0.05566438
0.0042577474 0.0674705 0.03031756 0.0694307 0.0086548105 0.05476964 0.031900644 0.03485703
-0.01687723 0.014068284 -0.05364118 0.0001790017 0.023485344 0.0022626235 -0.019991498 0.047118153
-0.048944436 -0.019791888 -0.063043974 0.046036653 -0.042905796 -0.012979739 0.04157659 0.022421781
0.06899034 0.03401754 0.01974659 -0.045795374 -0.036776762 -0.025458535 -0.015612381 0.0056115463
0.06827886 0.071517944 -0.014744624 0.05748247 0.026884567 -0.04898011 -0.002512381 0.047922235
0.038118005 0.0632102 -0.012592506 -0.019461589 0.01758146 0.056428906 -0.0189736 -0.033426717
0.06156003 0.077325866 -0.027130205 -0.002588093 -0.029264618 -0.011112853 -0.028075635 -0.049438555
-0.057399653 0.02171618 -0.030496042 -0.003218954 0.036761984 -0.03853418 0.012800608 0.03316474
0.024938837 0.07856859 0.031740706 0.035392802 -0.024923727 -0.009685702 -0.005812864 0.07679724
0.001530389 -0.002637223 0.02415805 -0.059092063 -0.037328772 -0.04593755 0.06278089 0.08207722
-0.014376595 0.08538613 0.031956006 0.06893817 0.06578617 0.06122939 -0.034258977 0.022598697
0.041152954 0.034999765 0.05210833 0.0132390335 0.016694082 -0.06676511 -0.060346127 0.023759017
0.02507464 -0.023293922 -0.017055916 -0.06297942 0.000965071 0.047164135 0.038065284 -0.04621907
-0.0042182854 -0.060732983 0.016378636 0.069573954 -0.0020437692 -0.07190734 -0.061370417 0.06327814
-0.045163117 -0.061995454 0.051914115 -0.038817655 -0.07981309 -0.023950689 0.0026084746 0.019166838
0.044394903 0.05321631 -0.028661003 0.06744427 0.0055613453 -0.06703438 0.06891925 -0.024036687

backbone.model.1.conv.0.bn.weight f4 [64]
00000000: 6bbd 793f 51eb 793f c751 793f 7706 7a3f
00000010: 3dc6 793f 1773 793f 46a7 793f dcba 793f
00000020: bb0b 7a3f c043 793f cdd3 793f 3246 793f
00000030: 438f 793f ee45 793f b04b 793f dc56 793f
00000040: 4268 793f e462 793f 8fa3 793f d298 793f
00000050: ab41 793f a451 793f 0884 793f 6053 793f
00000060: 80dd 793f e861 7a3f 2949 793f ffef 793f
00000070: 7db1 793f eb72 793f 216b 793f 78bf 793f
00000080: 8777 793f 7d34 793f 6382 793f 4865 793f
00000090: 7be6 793f f5a3 793f 2ed1 793f 0bad 793f
000000a0: 898b 793f 7a9c 793f d844 793f faa7 793f
000000b0: 94c1 793f d65a 793f b287 793f d975 793f
000000c0: 4785 793f 2930 7a3f 4e5f 793f 1478 793f
000000d0: 6fb1 793f bca7 793f e956 793f 2665 793f
000000e0: 0f62 793f 6674 793f 0d9f 793f eeb6 7a3f
000000f0: e428 793f 9cb4 793f 1d01 7a3f 198c 793f
0.97554654 0.9762469 0.9739041 0.97666115 0.9756811 0.9744124 0.97520864 0.9755075
0.9767415 0.97369003 0.9758881 0.97372735 0.97484225 0.9737233 0.97381115 0.9739816
0.9742471 0.9741652 0.97515196 0.9749881 0.97365826 0.973902 0.9746709 0.97392845
0.9760361 0.97805643 0.9737726 0.9763183 0.9753645 0.97440976 0.9742909 0.97557783
0.9744801 0.97345716 0.9746458 0.9742017 0.9761731 0.97515804 0.9758481 0.9752967
0.9747854 0.9750439 0.9737067 0.97521937 0.97561 0.9740423 0.9747268 0.97445446
0.9746899 0.97729737 0.9741105 0.9744885 0.9753637 0.9752157 0.9739824 0.97419965
0.9741525 0.97443235 0.9750832 0.9793538 0.9732802 0.97541213 0.9765795 0.974794

backbone.model.1.conv.0.bn.bias f4 [64]
00000000: 8922 f9ba b028 3e3b 7fc2 b5ba c86f 2f3b
00000010: 1b2f f1ba 27f4 bf3a 4a8f 0c3c 6a5e b4ba
00000020: 0e48 003c 8799 c1bb 65c0 303b db7e 30bb
00000030: 4d62 c2bb 7fff 5cbb d874 a13a c51c c83b
00000040: 5eb1 67bb c39e e83a 8eb2 6c3b 58fe fcba
00000050: 29d9 29bb a73d abba c0ec 6dba 69ef bc3a
00000060: 9e40 38bb efe6 a63a f4a1 353b d86f 483c
00000070: 29e5 103c 73c6 743b 3dde dbba 97a0 6c3b
00000080: a968 ccbb 7dc7 a03b 0970 583b d020 103a
00000090: c690 863b 1d80 e6b9 f5f6 aabb b02b ee3a
000000a0: 0256 dbba 433f a33b c34c d739 a54d 363c
000000b0: 1ceb 82ba cd88 d4bb 5442 843c 7368 9e3a
000000c0: 9ecb 80bb 082f 063c b73b 8bbb 55d9 113b
000000d0: 929c 2e3c 4c92 43bb 7f32 96bb d1e7 4fbb
000000e0: 3bd7 13bc 9ddb fdbb 6d98 cc3a c59c 9c3a
000000f0: 8101 a9bb 9e10 f33b 1560 2d3a e0a3 953b
-0.0019007485 0.002901595 -0.0013867168 0.0026769508 -0.0018400879 0.0014644907 0.008579085 -0.0013761048
0.007829679 -0.0059081945 0.0026970145 -0.002693108 -0.0059321285 -0.0033721623 0.0012318147 0.006106945
-0.0035353522 0.001774751 0.003611717 -0.0019301875 -0.002591679 -0.0013064638 -0.0009076111 0.0014414612
-0.0028114687 0.0012733618 0.002771494 0.012233697 0.008843699 0.003734973 -0.0016774606 0.0036106461
-0.0062380624 0.0049065934 0.0033025763 0.00054980535 0.004106614 -0.0004396447 -0.005217428 0.0018170979
-0.0016734006 0.0049819066 0.00041065188 0.01112691 -0.0009988281 -0.0064860345 0.016144909 0.0012085572
-0.003930523 0.008189924 -0.004249062 0.0022254784 0.010657446 -0.0029841838 -0.0045836563 -0.0031723867
-0.009023483 -0.007747127 0.0015609391 0.0011948576 -0.00515765 0.0074177524 0.00066137436 0.0045666546

backbone.model.1.conv.0.bn.running_mean f4 [64]
00000000: 6f7b ed3c 79d0 8b3e 8d90 92be 6df4 bd3d
00000010: 2a9d 853e 7b41 843d 43cd a73d fb48 023e
00000020: bbe6 4c3e c9d5 1abe 766e bbbd 242e 34be
00000030: d064 8f3e 2639 a9be b387 e7be 903e fb3d
00000040: 1b7e a8be 3f87 84be 5d75 903d e3ca 2fbe
00000050: 67d7 c2be f3d4 47be 56bd 763d 3f1b 4e3e
00000060: e205 af3e 0397 063f 504a e2be de03 05be
00000070: ba9c 8f3d d018 a0be 21b7 1dbe 5322 9c3c
00000080: 75b7 e43d 7abb 853e 00ff b63d 1473 4fbe
00000090: a5b5 9b3d 84ce bfbd 2008 453e cf74 ba3c
000000a0: 58b2 183e ce8d a53d 0a5d 05be 35c9 41bd
000000b0: 6c90 9a3d 756f 25be 64d3 47bd b5a7 d0bd
000000c0: 01b2 c4bc e322 20be bf58 803e 1992 473d
000000d0: 65ef 7b3d 8260 223e 4dbe 943c 14f8 eb3e
000000e0: 573e 963d 529d b4bb d62a 0d3e 0b68 f03d
000000f0: 5c75 353e 4095 2a3e 65ba debd 51a8 a33e
0.028989522 0.2730749 -0.28625908 0.09275136 0.2609647 0.06457802 0.081934474 0.12723152
0.20009892 -0.15120615 -0.09151928 -0.17595726 0.280066 -0.33051413 -0.45220718 0.12267792
-0.3290871 -0.25884435 0.07053635 -0.17167239 -0.38054964 -0.19514827 0.06023916 0.20127581
0.34184176 0.52574176 -0.4419732 -0.12989756 0.07012315 -0.3126893 -0.1540189 0.019059336
0.11167804 0.26119596 0.08935356 -0.20258743 0.07603005 -0.093655616 0.1924138 0.022760777
0.14911783 0.08083688 -0.13023773 -0.047311027 0.075470775 -0.16155799 -0.048785582 -0.101882376
-0.02401066 -0.15638308 0.25067708 0.048723314 0.0615076 0.15857127 0.018157149 0.46087706
0.07336109 -0.005511918 0.13785872 0.117385946 0.1772055 0.16658497 -0.10875396 0.31964353

backbone.model.1.conv.0.bn.running_var f4 [64]
00000000: fa4d 0b3e 4fe0 5f3e dd30 443e 330b d73d
00000010: 5a23 413e b6c5 2e3e 9e4e 2d3e f4a7 5d3e
00000020: d743 df3e e137 113e 749e 463e 6121 403e
00000030: 3dce 583e fee7 1a3e ba04 c13e 2e70 ae3e
00000040: b70f cc3e a45f 723e cd15 1b3e b94d 1d3e
00000050: 244e bd3e 7132 373e f294 7d3e ce72 7a3e
00000060: 54ac 353f 3f12 6b3f a068 d13e 4cfc 263e
00000070: 9eeb 293e 5b46 a33e 17eb a03e 4612 163e
00000080: d1e9 553e 17f9 693e 2663 823e 0fd8 1d3e
00000090: eda3 333e 9ecc 133e aedd 823e e5d0 b23e
000000a0: 102f 7e3e 1242 493e 3892 6d3e e747 813e
000000b0: 565c 033e 6147 0e3e bcae fb3d 802b 3c3e
000000c0: 97d2 883e 5ae0 2b3e a9c8 733e 32ea f93d
000000d0: b0d0 5f3e 68f2 133e e7c6 103e 7f5e e23e
000000e0: 421f 1f3e 7800 993e 0aad 383e 7cec a43e
000000f0: 0f23 1c3e 46ca 823e daf1 cc3d 321e 923e
0.13603964 0.2186291 0.19159265 0.10500183 0.18861142 0.17067608 0.16924521 0.216461
0.43606445 0.14181472 0.19396383 0.18762733 0.21172424 0.1512756 0.3769892 0.3406996
0.3985574 0.23669297 0.15145035 0.1536168 0.3697368 0.17890336 0.2476385 0.24457857
0.70966077 0.91824716 0.40900135 0.16307181 0.16593787 0.31889614 0.3142936 0.14655408
0.20889975 0.22848926 0.2546627 0.15414451 0.17543001 0.14433524 0.25559753 0.34925
0.2482264 0.1965411 0.2320031 0.2525017 0.12828192 0.13894416 0.12289187 0.18375969
0.26723167 0.16784802 0.23807015 0.12202872 0.21856952 0.1444794 0.14138375 0.4421272
0.15539268 0.2988317 0.18034759 0.32211673 0.15247749 0.25544947 0.10007067 0.28538662

backbone.model.1.conv.2.conv.weight f4 [24, 64, 1, 1]
00000000: b501 a3bc 5846 0e3d 9ce4 e8bd 9467 1e3d
00000010: 4a3d 0dbd 4cef a73d a901 c2bc 2017 ac3d
00000020: 6786 813b ed91 02bd 0a0c da3c 08a8 ec3c
00000030: 8312 0b3b 7dc4 e2bb 6a8d 013d 8eaf 653d
00000040: 0d8e 55bb 4a6a abbd 0da9 dcbd 43f0 c03c
00000050: a624 e3bd 755f 83bd 3f6b a93c 7854 703b
00000060: 3c54 b5bd 9534 70bd ef98 babc 1d2b 44bd
00000070: be32 11bd afdd 19bd 677c 053d a1b7 31bd
00000080: 0317 a1bc 323e 39bd 0570 213d d380 5c3b
00000090: ad8b 473d 7101 e03d eed2 a1bc d7a7 7bbd
000000a0: a545 fb3d 1493 e53d 2fac cdbc 2f9a 8bbd
000000b0: 9d72 15bd 6ddc 4abd b6a9 833d 477b 813c
000000c0: ca67 453d f563 cabd e203 3a3d 09aa babd
000000d0: 59e1 963d 587d 653d 7460 ecbc 23e7 c3bd
000000e0: b9cf 61bd c689 40bd 7360 d3bd afce e7bc
000000f0: 8084 da3a 3939 d73d 78c6 39bc 2f14 ccbd
00000100: 353a 93bd f862 d73d 91a3 783d 4182 97bd
00000110: d277 e7bd 8a4e e53d cc3b cfbd d70d 9cbd
00000120: bf04 7f3b dd11 6fbc fe51 a23d 77da a33d
00000130: 7d72 a5bb 8c04 fbbb 3187 cf3c 0bbb dcbc
00000140: 74d2 3a3b b24b c83d 929d b23d 4816 e1bd
00000150: 1cc6 aabd 966a cc3c 187e 7b3d e2e4 173c
00000160: 1708 aa3c b6d5 a3bd 1e00 e33d 14b7 7ebd
00000170: fd35 cabd 6ce2 073d f774 edbb 372e a23d
00000180: bbbe c7bd 90f0 96bd 0ed6 c23c 3ec0 ba3d
00000190: 0dde 1abd 3db7 783d 233f a0bc 1b08 bbbd
000001a0: f379 4abc 09c8 c5bc 8345 56bd f7f6 72bd
000001b0: 7062 073d e492 e0ba 9255 a13d effb f0bc
000001c0: e185 a9bd f4ba d4bd fde9 cebd 32ea df3d
000001d0: 5441 33bd 0482 bebd b80d 31bd fa0a 013d
000001e0: f846 2bbc b18d a2bd 98a2 703c 3e59 ccbd
000001f0: 1f1a f0bc 85ae e3bb 3ac0 8dbc 3d65 83bd
00000200: a74d 4cbd 9f71 9dbd 9ee3 843d f8ab e3bd
00000210: f7fc 913c 3110 41bc e553 d73d 3654 f5bd
00000220: a061 f83d 1624 373c 4026 c5bc 2315 8b3d
00000230: ba7a b7bd fbd1 253d c7ad fcbb 0e4d f2bc
00000240: 62cd 06bc 7637 993d a5b5 b9bd 703f 8c3d
00000250: 9aad 27bb 70a6 edbd 727e f23d dbec b9bc
00000260: 2cda 533d 5a42 db3c c448 a2bd abe9 c63c
00000270: b073 163d 7c87 06bd 286d 67bd 20c5 b03d
00000280: 04c4 0d3d 243a b03b 48dc 8cbc 63b7 95bd
00000290: eb72 d6bc 66fe a13d cda2 5fbd 1e44 f2bc
000002a0: 7d46 fe3c bd12 d9bd 2b19 cdbd 48d8 29bc
000002b0: 5caf 153d 5910 33bd 801b a0bd da96 483c
000002c0: 170e 103d 44b7 92bd dd3b f0bd 199f 603d
000002d0: 9b34 dcbd 2c75 c33d 749d f1bc 8d8f cc3d
000002e0: 5c05 cebc f80e b33d a890 acbd 0052 b43d
000002f0: 484e d13d db64 683d 81e1 a3bd 5f91 ce3d
00000300: ed90 393d 9d01 003e e549 1d3c d432 cb3d
00000310: 0bf7 61bc e1f5 f83d f5d5 363d 5bf2 b2bd
00000320: 9ff1 b23d 396e 693d c730 01bc ed5c dbbc
00000330: c232 9fbd c786 12bd 4352 8abd a085 a7bd
00000340: 9b1d 94bc afa4 c0bd 245c 873d 1886 d13d
00000350: 6599 ecbd c73f 95bd 8c9d d2bd 1f09 bbbb
00000360: a326 a1bd 0f07 a3bd 6646 823c 87fa 8f3c
00000370: 5283 ca3d 337e dbbd 925a 4dbc ef7b 8e3d
00000380: 5299 1fbd 3fb0 a23d 8ef7 dbbd c44c 753c
00000390: 67d0 07bd 580d 97bc 5823 dfbc 7c1c 34bc
000003a0: 98bf e53c 8424 cabd 917b 633c b19a 9abd
000003b0: 99b3 debc 8322 ef3d 79dd 4e3d 58f0 e73b
000003c0: e501 8a3d bf99 95bd 5250 80bc 9a30 13bd
000003d0: f2d1 853d 5903 083d e618 7dbd 26e9 e63d
000003e0: 688f 9a3c 2de4 213d 62e2 9dbd 4544 e83b
000003f0: 3a8a d0bd 9313 413d b25e 753d 9c59 dcbc
-0.019898275 0.034735054 -0.11371729 0.038673 -0.034482278 0.08199939 -0.023682432 0.08402848
0.0039527896 -0.031877447 0.026617069 0.028888717 0.002122075 -0.006920396 0.031629004 0.056075625
-0.003258589 -0.083698824 -0.107744314 0.023552066 -0.110909745 -0.06414691 0.020681022 0.003667144
-0.08853957 -0.058643896 -0.022778003 -0.04789268 -0.035448782 -0.03756493 0.032589342 -0.043388013
-0.019664293 -0.04522533 0.03941347 0.003364612 0.04871719 0.10937775 -0.0197539 -0.06143936
0.12269143 0.112096936 -0.025106518 -0.068165176 -0.036486257 -0.04952662 0.06428854 0.015805854
0.048194684 -0.098823465 0.04541386 -0.09114463 0.073672004 0.05602774 -0.028854586 -0.0956557
-0.05512974 -0.04700639 -0.103211306 -0.028296797 0.0016671568 0.10508961 -0.011338823 -0.09964787
-0.071888365 0.10516924 0.060702864 -0.07397891 -0.11302151 0.11196621 -0.10118827 -0.07619827
0.003891274 -0.014591661 0.07925795 0.08000653 -0.0050490485 -0.007660454 0.025333019 -0.026944658
0.0028506787 0.09780063 0.087214604 -0.10990578 -0.083385676 0.024953168 0.06139955 0.0092708785
0.02075581 -0.079997465 0.11084007 -0.062186316 -0.09873579 0.033174917 -0.0072466093 0.07918971
-0.09753176 -0.073701024 0.02378371 0.091186985 -0.03780942 0.060721625 -0.019561356 -0.09132405
-0.0123581765 -0.024143236 -0.052312385 -0.059317555 0.03305286 -0.001713362 0.07877649 -0.029417006
-0.082774885 -0.10387221 -0.101032235 0.10933341 -0.043763474 -0.09302142 -0.043225974 0.03150461
-0.010453932 -0.07937182 0.014687203 -0.09977959 -0.02930933 -0.0069482946 -0.017303575 -0.06415794
-0.049878743 -0.07687687 0.06488727 -0.11116785 0.017820818 -0.0117836455 0.105140485 -0.119789526
0.121279955 0.011178037 -0.02406609 0.06791141 -0.08958955 0.040483456 -0.0077111456 -0.029577758
-0.008227678 0.074812815 -0.09067849 0.06848037 -0.0025585652 -0.11604011 0.11840524 -0.02269595
0.051721737 0.026765037 -0.07924035 0.024281343 0.036731422 -0.03284405 -0.056500584 0.086313486
0.034610763 0.0053780247 -0.017194882 -0.07310369 -0.026177844 0.07909851 -0.05459862 -0.029573496
0.03103947 -0.10599277 -0.10014566 -0.010366507 0.03654419 -0.043716762 -0.07817745 0.012242997
0.035169687 -0.071638614 -0.11730168 0.054839227 -0.10752221 0.09543833 -0.029494025 0.09988318
-0.02514904 0.087430894 -0.084260285 0.08804703 0.10220009 0.05673681 -0.08001996 0.10086321
0.045304228 0.12500615 0.009600137 0.09921804 -0.01379181 0.12156273 0.04463764 -0.08737632
0.08737492 0.056989882 -0.007885165 -0.026777709 -0.07773353 -0.035773065 -0.067539714 -0.08179784
-0.018080523 -0.09406411 0.06609371 0.102306545 -0.11552695 -0.07287555 -0.10283956 -0.0057078744
-0.078686975 -0.07960331 0.01590271 0.017575515 0.098883286 -0.1071743 -0.012533801 0.06957232
-0.038964577 0.079437725 -0.10740577 0.014971916 -0.033157732 -0.01843898 -0.027238533 -0.010993119
0.02804546 -0.09870246 0.013884441 -0.07549036 -0.027185248 0.116765045 0.05050418 0.0070782118
0.067386426 -0.07304715 -0.0156633 -0.035935022 0.065341845 0.033206318 -0.061791323 0.11274938
0.01886721 0.039524246 -0.07709195 0.0070882165 -0.101826146 0.047137808 0.05990476 -0.026898198

backbone.model.1.conv.2.bn.weight f4 [24]
00000000: e79a 793f a4a7 793f 6489 793f 7dac 793f
00000010: 0a8f 793f 2043 793f 99b6 793f f0da 793f
00000020: c914 7a3f 5a37 7a3f 7803 7a3f 69cf 793f
00000030: a85d 7a3f aee5 793f 2fe1 793f 534e 7a3f
00000040: 3e97 793f e3f5 793f f58e 793f eca7 793f
00000050: c7ac 793f 7a80 793f fb57 7a3f 89fb 7a3f
0.9750199 0.97521424 0.97475266 0.9752882 0.97483885 0.9736805 0.97544247 0.975997
0.97687966 0.9774071 0.9766154 0.9758211 0.9779916 0.9761609 0.9760923 0.97775763
0.974964 0.9764082 0.9748376 0.97521853 0.9752926 0.97461665 0.977905 0.9804006

backbone.model.1.conv.2.bn.bias f4 [24]
00000000: 1c54 f5b9 6ec6 b43a bb60 7cb9 6cf3 27bb
00000010: 0770 803b 93dc efba 2f6c 463b 1b2e cd39
00000020: 192b 23bb a605 d33b 8ae9 12bb b77a 1dbb
00000030: c0a2 9c3c cc08 f23a 1690 13ba 6d28 78bb
00000040: 4d33 a4bb e465 d6ba 6ff5 a43b 0196 76bb
00000050: 9662 86bb 62dc 1cbb 85a0 b03a 0556 113c
-0.00046792708 0.0013792047 -0.00024068628 -0.0025627268 0.0039196047 -0.0018299989 0.0030276885 0.00039134998
-0.0024897514 0.0064398823 -0.0022417032 -0.0024029443 0.019120574 0.0018465756 -0.00056290755 -0.0037865893
-0.0050109983 -0.001635727 0.005034141 -0.003762603 -0.004101108 -0.002393507 0.0013475573 0.008870606

backbone.model.1.conv.2.bn.running_mean f4 [24]
00000000: 8c17 07be 27f1 1cbe 4ceb bdbc 6c38 4fbd
00000010: 8c31 e7bd 0d77 f73b 7394 ef3d 0027 a3bc
00000020: eb5e 373e 01f2 31bb 18e0 21be 5223 103d
00000030: cc61 efbd 6f9f 8b3d 8481 043e dc4a 943d
00000040: f54f 933d 1ea0 0bbd 0a8b 013d a02c 663d
00000050: c909 f5bc 39f7 12be b5d7 4b3d 3760 bc3b
-0.13192576 -0.15326367 -0.023183487 -0.050590917 -0.11288747 0.0075520338 0.11698236 -0.019916058
0.17907302 -0.0027152302 -0.15808141 0.035189934 -0.11688575 0.06817519 0.12940031 0.07240841
0.07192985 -0.034088247 0.03162674 0.0561949 -0.029911892 -0.1435212 0.04976626 0.0057487744

backbone.model.1.conv.2.bn.running_var f4 [24]
00000000: b8e2 833d 06a3 823e fb21 ee3d 03d8 e93d
00000010: 4ac7 573e 6d97 273e 8e4e 093e c0b8 2b3e
00000020: 0c7e 803e 91ab e43d da1e c03d 29f2 4d3e
00000030: 8e17 b03d e31f 1a3e 7dcc f13d a7ec 073e
00000040: 7c19 c73d 1667 ba3d 10e3 d23d 4440 ca3d
00000050: 20c5 bf3d ddad 473e 141b 123e 135f 0a3e
0.064397275 0.25515002 0.11627575 0.11418154 0.21072116 0.16366358 0.13408872 0.16769695
0.25096166 0.11165536 0.093808845 0.20111908 0.08598243 0.15051226 0.11806581 0.1327387
0.09721658 0.09101693 0.10297215 0.09875539 0.093637705 0.19499917 0.14268142 0.1351283

backbone.model.1.downsampling.conv.weight f4 [24, 16, 1, 1]
00000000: 358c 16be d19e 17be bde7 063d d951 2c3e
00000010: 6fd7 173e 89fc 413d 1c8b 523e a59d 833c
00000020: 0c2c 4ebe 22f5 11be 5f13 afbd 395b 353e
00000030: a3d2 b13c 7f74 643e 0e05 57be a0c8 043e
00000040: 666e 303e 488b 083e 0ea3 c03d 80df 183e
00000050: 5f60 38be 3e76 8bbc 46b4 c0bc e528 183e
00000060: 95b0 b8bc b074 82bd 2c83 07be 4400 6fbd
00000070: fe3c b2bc fcb0 7d3e a071 e83d 5afc 353e
00000080: 1c36 87b9 f04a d5bd 55b4 443d 3fea 7f3c
00000090: bba8 5a3e 0616 1f3e b3ea f3bd 0bfc adbc
000000a0: 8eb0 a7bd c65d 54be cae7 0dbe 5bd3 64be
000000b0: ed80 06be 8452 20be 38e8 61be 69ba 6c3d
000000c0: 3745 3cbe 9633 6a3e f473 e9bd b9a8 23be
000000d0: 62da 453e 5403 d03c 9d11 0abe 4096 30be
000000e0: 2389 083d 2c58 86bd c356 4f3e 9744 b4bd
000000f0: a342 843c 72d9 08bd e685 9dbd e4b6 30be
00000100: 044e fe3d 8fe1 6b3d 213c 8a3b 6984 21be
00000110: 463e 73bd a7f3 2abe bb05 213e 9377 2f3e
00000120: 3f5d 29be bfe7 683d d0ed 74bc 2481 68be
00000130: f727 443e 4e5c ffbd 3362 10be 82f6 64be
00000140: 17c8 723e 0a0e 1f3e ce18 303d 8c29 4d3e
00000150: 885a 8cbc 26ed 943d b1cd 5d3e 65e6 d2bd
00000160: 49af 4ebe 2add dbbd 5dab 42be 5a9a 7bbd
00000170: bb0d 49be 29a3 573e e8e0 23be 4ab4 243e
00000180: 3624 9d3d dd93 683e 2648 3d3e 855d 1cbe
00000190: 691c 5cbe 4e59 1dbe e523 2fbc 05cd 29be
000001a0: 5302 483e 80e1 923d 3c65 4f3d 55a0 4e3d
000001b0: 5437 3fbe eda1 30bd 1d11 193e f7c8 f8bd
000001c0: 298c 1a3e 8f48 78bd 507b 543e 07bb 2dbd
000001d0: 3c55 ffbc b8b9 e3bd 9247 5ebe 748c 483d
000001e0: df5c 5f3e 8acc 193d 14fa 393e 7d4f 5f3e
000001f0: 9b59 a8bb d06f e3bd 1696 18be f47c 2a3e
00000200: aee6 7f3d 519c 293e eb07 623e 891b aa3d
00000210: a33c 5c3d 5b18 b2bc 9acb f8bc 1037 0f3e
00000220: 7997 493e d962 f83d fbe5 24bd b83c 1dbe
00000230: 7d89 6a3e fefe b9bc e4cf 013e d658 5e3e
00000240: fbde 16be dc46 73be b732 2e3d e980 3b3e
00000250: 96c9 3a3d 793f 883d 164c 28be 3311 61be
00000260: b879 1e3e 05be 8abd d519 66be c4ca d4bd
00000270: b046 d03d 5f67 7b3b 21ae a23d 8add a0bd
00000280: 623c 43be d335 49bd b6b0 573e 55e7 ae3d
00000290: ab98 513e d9eb 63be 6301 673e 2069 bf3d
000002a0: dcfe 2abe 9f68 94bd 5b6c 463e 4f84 d73d
000002b0: 2bdc 19be 3bc5 793e cc50 21be 38be 3dbe
000002c0: 0e54 0cbe 8e8d 55bd f6b4 b63d 13de 3a3e
000002d0: b71e 043e fea5 593b a486 093e a1ae 2f3e
000002e0: 9029 02be 05ac 71be f641 f13c 1131 333e
000002f0: 9772 29be 55fc 9b3c e7cf 1f3e dcf4 c8bd
00000300: c68a 8d3b 0538 2d3e d03c d23d ac6a 84bd
00000310: 48c8 d33d 6fba 53be 8f28 6dbe 3794 ea3d
00000320: 877c 4f3e 1823 c3bd 10e7 47be d97b cbbd
00000330: 9e70 eebd c116 e13d d3c8 223e c0e9 5e3e
00000340: a425 8c3d 5a22 45be dda6 e4bd f214 f93d
00000350: 2b45 e33c 323c 193e 9fe9 a73c a222 1e3e
00000360: 3453 3e3d 24bf 2fbe 9c85 6bbe b152 8fbd
00000370: a3cf 5c3e 63c0 2ebe 568f 35be 1f77 07be
00000380: 1800 28be 8bbc 8fbd b196 313e 5f7b bc3d
00000390: e189 a3bd 869f 413e 870d f43c c1a3 aa3c
000003a0: e1a0 0abe 4d58 d2bd 2a2a 5dbe 6cf6 023e
000003b0: 3f17 12bd f252 2ebe 7d7b 96bc f7dc 19be
000003c0: fdfc 41be 99ee eebd b2a9 edbd a454 9dbc
000003d0: 2a0b ecbd 3cd7 613d c8e1 6cbe 69b0 563e
000003e0: fd32 19be 392c a63d 216b 373e ca7e d4bd
000003f0: fbae 23be 9a92 4ebd 33f4 bebd e0a3 6d3e
-0.14701922 -0.14806677 0.032935847 0.16828097 0.14828275 0.047359977 0.20560879 0.016066382
-0.2013399 -0.14253667 -0.085486166 0.1771058 0.021706885 0.22310065 -0.20998022 0.12967157
0.17229614 0.13334382 0.094061 0.14929008 -0.18005513 -0.017024156 -0.023523461 0.1485935
-0.022545138 -0.063699126 -0.13233632 -0.058349863 -0.021757599 0.24774545 0.11349797 0.17772046
-0.0002578952 -0.10414684 0.04802354 0.015619813 0.21353428 0.15535745 -0.1191 -0.021238348
-0.08187972 -0.20738897 -0.13857952 -0.2234625 -0.13135119 -0.15656477 -0.2206124 0.057794962
-0.18385778 0.22871241 -0.113990694 -0.15982331 0.19321588 0.025392212 -0.13483281 -0.17244816
0.03333391 -0.06559786 0.2024794 -0.08802145 0.016145056 -0.033410497 -0.07691555 -0.17257267
0.12417224 0.057588156 0.0042185937 -0.15773167 -0.05938556 -0.16694508 0.15724842 0.17135458
-0.16539477 0.056861635 -0.014949277 -0.22705513 0.1915587 -0.124687776 -0.1409996 -0.2235966
0.2370914 0.15532699 0.042992406 0.2003538 -0.017133012 0.07271795 0.21660496 -0.102978505
-0.20184053 -0.10735543 -0.19010682 -0.061426498 -0.19634144 0.21058334 -0.16003764 0.160844
0.07672922 0.22712655 0.18484554 -0.1527005 -0.21495213 -0.15366098 -0.01068971 -0.16582115
0.19532137 0.07171917 0.050633654 0.050445873 -0.1867345 -0.043123174 0.14947934 -0.12147706
0.1509253 -0.060616072 0.20750165 -0.04241469 -0.031168573 -0.111194074 -0.2170699 0.04896207
0.21812771 0.03754858 0.18161803 0.21807666 -0.005137635 -0.11105311 -0.14901003 0.16649228
0.062475853 0.16563536 0.22073333 0.08306033 0.053768765 -0.02174013 -0.030370522 0.13985848
0.19686688 0.12128229 -0.04025839 -0.15355194 0.2290401 -0.022704598 0.1267696 0.21713576
-0.14733498 -0.237575 0.042528834 0.18310894 0.045602404 0.066527314 -0.16435274 -0.21979217
0.1547612 -0.067745246 -0.22470792 -0.10390237 0.101697326 0.0038361175 0.07943369 -0.07854755
-0.19066003 -0.049123596 0.21063504 0.08540217 0.20468394 -0.22257937 0.22559123 0.09346223
-0.16698784 -0.072465174 0.19377272 0.10523283 -0.15025394 0.24391644 -0.15753478 -0.18529594
-0.1370394 -0.05213695 0.08921234 0.18248777 0.12902342 0.0033210511 0.13430268 0.1715646
-0.12711167 -0.23600776 0.029450398 0.17499186 -0.16547619 0.01904122 0.15606652 -0.09812328
0.0043195216 0.16915901 0.10265505 -0.064656585 0.10340935 -0.20676588 -0.23160003 0.11454051
0.20262347 -0.09528178 -0.19521737 -0.099357314 -0.11642574 0.10990668 0.15896921 0.21768856
0.06843117 -0.19251385 -0.11164639 0.12162198 0.027742943 0.14964369 0.020497141 0.15442899
0.046466067 -0.17162758 -0.23000187 -0.06998194 0.21563582 -0.17065577 -0.1773046 -0.13229035
-0.16406286 -0.070183836 0.1734264 0.09203219 -0.07985283 0.1890851 0.029791607 0.020830037
-0.13537933 -0.10270748 -0.21598116 0.12789315 -0.0356667 -0.17023829 -0.01836943 -0.15025698
-0.18944164 -0.11666603 -0.116046324 -0.019205399 -0.11525567 0.055136904 -0.23133004 0.20965733
-0.14960857 0.081139036 0.1791196 -0.103757456 -0.15984719 -0.05043278 -0.09323921 0.23207045

backbone.model.1.downsampling.bn.weight f4 [24]
00000000: a164 793f f520 7a3f aaa6 793f be2b 793f
00000010: 9d45 793f 439f 793f 11c1 793f b116 7a3f
00000020: 121f 7a3f 152f 7a3f 3a5d 7a3f 5a95 793f
00000030: 18e4 7a3f 6e34 793f 2c73 793f 7061 793f
00000040: 8fc7 793f a5da 793f e990 793f b785 793f
00000050: 3e50 793f 39c8 793f 3a5d 7b3f 08ef 793f
0.9741917 0.9770654 0.97519934 0.9733237 0.97371846 0.9750864 0.9756022 0.97690874
0.9770366 0.9772809 0.977985 0.9749352 0.98004293 0.97345626 0.97441363 0.974143
0.9757013 0.9759925 0.9748674 0.9746966 0.97388065 0.9757114 0.9818913 0.9763036

backbone.model.1.downsampling.bn.bias f4 [24]
00000000: 1471 453b 0b30 41ba 9631 7539 6b0f e2bb
00000010: 6b23 4d3b 8790 ad3a a567 8b3b 5237 6b3a
00000020: 570d 88bb 88fd c43b 5ae9 803b 1892 90bb
00000030: 0901 553c cf60 87bb a58e 453b f7ec 3ebc
00000040: f597 dabb 0dc9 d839 f0ff 5c3b f377 cdba
00000050: 4053 a23b bd89 bdbb 56d7 433b 9c1c 4d3b
0.0030127214 -0.00073695247 0.00023383493 -0.0068988106 0.0031301628 0.0013241925 0.0042542988 0.0008972782
-0.004151981 0.0060116686 0.0039340677 -0.004411947 0.013000735 -0.0041314135 0.0030144837 -0.0116531765
-0.0066709467 0.00041348525 0.0033721887 -0.0015676006 0.004953772 -0.005784242 0.002988299 0.003129757

backbone.model.1.downsampling.bn.running_mean f4 [24]
00000000: f5ea 843d 386b 943e 9bd8 c6be 6b43 36be
00000010: f246 56be 6859 553d e3e7 f13c 57a1 8b3e
00000020: 1311 ff3e 8827 93be a44e dd3d c181 043e
00000030: f340 c13d f06f 80be 52d1 65be 0b81 3bbe
00000040: f0bb 85bc 45b1 1e3f fb82 173d ce73 8fbe
00000050: 1230 963d 38ff b33d 8d87 c03e 05b0 573d
0.06490127 0.2898805 -0.38837132 -0.17799155 -0.20925501 0.052087218 0.029529518 0.2727153
0.49817714 -0.28741097 0.10806015 0.12940122 0.09436216 -0.25085402 -0.2244313 -0.18310945
-0.016324967 0.6198924 0.036990147 -0.2801804 0.073333874 0.087889135 0.37603417 0.0526581

backbone.model.1.downsampling.bn.running_var f4 [24]
00000000: d4b4 df3d 6211 993e ba38 c43e 2f43 0a3e
00000010: 49bf ca3e 89e7 883e 641c 233e 437a 143f
00000020: 431f d03e 8782 453e f543 e73d 28f2 353e
00000030: fedd 143e a0d5 863e 4b8c 463e f6cc 1f3e
00000040: 58c8 083e 3bb7 733f 0059 833e 11b8 da3e
00000050: be3f 453e a1d3 943e 4314 373f 7267 7e3e
0.10923162 0.29896075 0.3832453 0.13502191 0.39599064 0.26739147 0.15928799 0.57999057
0.4064885 0.19288073 0.11292259 0.17768157 0.14537808 0.26334858 0.19389455 0.1560553
0.13357675 0.9520146 0.2565384 0.42718557 0.19262597 0.2906771 0.7151529 0.24844149
