weights/military_civil_clf3.pt (torch, 709461 bytes, 152 tensors)

backbone.model.0.conv.0.conv.weight f4 [12, 3, 3, 3]
000000 a9 e5 c8 bc 3f 12 18 3e a7 66 36 3e e8 54 c0 3c
       -0.024523573 0.1485071 0.17812596 0.023477986
000010 48 2d 23 be 34 c1 b0 bd 15 09 3d be 0b c5 17 3e
       -0.15935242 -0.086306006 -0.18460496 0.1482126
000020 5b 84 93 bd ef 05 e3 3d d5 99 02 3e 3a 01 b7 bc
       -0.07202979 0.11085116 0.12753995 -0.022339452
000030 bd e8 83 3d 31 25 f7 3d 25 ce 18 ba c3 d2 ab 3d
       0.06440876 0.120676406 -0.0005829058 0.08389809
000040 97 22 8a bd 55 12 2e be 05 eb 8c 3d 38 ec 28 3e
       -0.06744879 -0.1699918 0.06880764 0.1649636
000050 de a7 4a bd 43 6c 89 bd 58 f1 fc bd fc 3b a7 bd
       -0.049476497 -0.067101024 -0.1235072 -0.08165738
000060 e7 8e ab 3d 48 01 1e be 1d e7 35 3e c7 ef 18 3e
       0.08376866 -0.15430176 0.17763944 0.14935218
000070 43 3f 10 3c bf 45 49 bd ba 2d cf bd 16 9a 83 3d
       0.008804145 -0.04913878 -0.101161435 0.06425874
000080 2b 76 28 be ba 4a 9c bc 30 30 b2 3c 2b 5f a2 38
       -0.16451328 -0.019078601 0.021751493 7.7424884e-05
000090 a3 35 93 bd ba 9c 7e 3d 9a 23 a6 bd f3 a8 03 be
       -0.07187965 0.062161185 -0.08112259 -0.12857418
0000a0 9e ee 29 3b 59 04 cd bc 0e 29 25 be fa 8c ac bb
       0.002592958 -0.025026487 -0.16128942 -0.005265829
0000b0 03 93 22 bc 6a 4f 09 bd 81 8c 24 3d cc 64 95 3d
       -0.009922746 -0.033523 0.040173057 0.07294616
0000c0 70 42 31 be 92 9e ca bd 4f d8 ce 3d 75 d0 66 3d
       -0.173105 -0.09893526 0.10099851 0.056351144
0000d0 b7 12 f8 3c ac de ab bd 1a d6 9d 3d a4 4a 35 be
       0.030282361 -0.08392081 0.07706852 -0.17704254
0000e0 a7 73 8f 3d 2f 38 12 be 92 ee 1d be 7a 35 29 be
       0.07004481 -0.14279245 -0.15423039 -0.16524306
0000f0 b2 f4 07 be f5 29 13 be 4f fa ba bd 83 b5 33 3d
       -0.13276938 -0.14371474 -0.09129774 0.043874275
000100 ce 4d 38 3e b1 d4 12 be 8b d2 5a 3d 39 69 35 3e
       0.1799843 -0.14338948 0.053423446 0.1771592
000110 5e 21 0d be c2 e9 91 bd d2 25 a7 3d 93 da 02 bd
       -0.1378226 -0.07124664 0.081615105 -0.03194673
000120 a7 92 93 bd 7f 98 0a bd 7b f6 84 bd 23 50 99 bd
       -0.07205706 -0.033836838 -0.06492325 -0.07485988
000130 66 0a 92 bc a2 fe a2 3d 74 03 8d bd 78 2a 00 3e
       -0.017827224 0.079587236 -0.06885424 0.125162
000140 fd c8 1c 3e cf e5 ed 3d 45 08 32 3e 1c e2 eb bd
       0.15311046 0.11616098 0.17385967 -0.11517736
000150 a1 fe ea 3d 63 32 6d 3c 74 c3 60 bd de ee 21 be
       0.11474348 0.014477345 -0.0548739 -0.15813777
000160 02 b3 c8 bd 12 49 b0 bc 51 bc e7 bd c7 bf a6 3d
       -0.09799768 -0.021519218 -0.113152154 0.081420474
000170 a7 52 fb 3d 7c c6 3f 3e 6e 43 de 3d 03 1b 3f 3e
       0.12271624 0.1872806 0.10852705 0.18662648
000180 18 e0 d7 bd 0f bd bc bd d9 62 a6 bc 98 32 5b bb
       -0.10540789 -0.092157476 -0.020310806 -0.0033446904
000190 5c 1c 82 bd fe a3 d0 bd 74 57 38 be 6c b3 35 3e
       -0.06353065 -0.10187529 -0.1800211 0.17744225
0001a0 4c 20 1c 3e 85 e5 e1 bd c7 be b6 bd 36 13 4c 3d
       0.15246695 -0.110301055 -0.08923107 0.04982301
0001b0 2c ad 6c 3c b5 86 34 bd e4 6c 50 3d 0e 80 3b be
       0.014445584 -0.04407378 0.050885096 -0.18310568
0001c0 74 8f 37 3e 79 5b 3d be dd 96 f4 3d 7c 24 f8 bd
       0.17925817 -0.18491925 0.119428374 -0.12116334
0001d0 50 96 f0 3d 3f 31 e3 bd fb 41 35 be 56 4b 25 3d
       0.1174742 -0.11093377 -0.17700951 0.04035505
0001e0 8e 82 06 bd 2f cc 8d bd ba 53 18 3d 5b 7e 31 bd
       -0.03283935 -0.069237106 0.037189223 -0.043333393
0001f0 02 2a 4c bb 05 8d 8d 3d ec eb b5 3c 11 8d 00 3e
       -0.0031152968 0.06911663 0.022207223 0.12553813
000200 ab 46 b5 bb fa 8a 37 bc 1d 35 23 3e b1 f0 0b 3e
       -0.005532106 -0.011202568 0.1593823 0.13666035
000210 0e 63 d6 bd 1c 2d 82 3d 6c 6f c5 3d 8f cf 36 3d
       -0.10468112 0.0635626 0.09640393 0.044631537
000220 9f bb 38 be 81 7c 54 bc 7a 60 47 be a9 d7 25 be
       -0.18040322 -0.012969137 -0.19470397 -0.16195549
000230 46 b4 08 be c2 62 d2 bd 79 8c 37 be 96 35 20 be
       -0.13350019 -0.10272743 -0.1792468 -0.15645441
000240 ec 24 05 3e 2a 72 2a 3e 12 33 e6 bd 39 17 a4 bd
       0.13002366 0.16645113 -0.1124021 -0.08012242
000250 ef 83 ce 3d 63 ae e9 3b 5e 1e 96 3d 0e e0 bc 3d
       0.10083758 0.007131384 0.07330011 0.092224225
000260 e1 ad a1 3c 81 29 02 be 79 ec 2a 3e 66 76 1a 3e
       0.019736232 -0.12711145 0.1669177 0.15084228
000270 78 5c eb bd 21 05 2d 3e d2 c1 41 3c 01 f5 17 3e
       -0.114922464 0.16896488 0.0118259955 0.14839555
000280 ff 49 9c 3d dd 93 e0 3a 9a c9 22 3c 5d 23 5b bd
       0.07631301 0.001713391 0.009935761 -0.053500522
000290 dc 3f 15 be d2 77 eb 3b 48 77 01 3e df 6e 94 3d
       -0.14575142 0.0071859146 0.12643158 0.072477095
0002a0 04 6d 4e bd b9 e8 08 bd 14 1c 05 3e 7a ac a1 bc
       -0.050396934 -0.033425067 0.12998992 -0.019735564
0002b0 d0 29 72 bd 38 33 b6 bd a7 be 0c be 58 4c a9 bd
       -0.059121907 -0.08896488 -0.13744603 -0.082665145
0002c0 60 64 1d be dd a5 0d be 50 18 42 be b1 88 36 3e
       -0.15370321 -0.13832803 -0.18954587 0.17825581
0002d0 cd 37 ae bd 54 93 a2 bb 97 2c 84 3d c1 5d 20 3d
       -0.08506737 -0.0049614105 0.06453817 0.03915191
0002e0 02 1c 3a 3e 22 be 1c be fe db b2 ba b4 10 09 be
       0.18174747 -0.15306905 -0.0013645885 -0.13385278
0002f0 0f e4 f1 3d f9 63 2f be 4b 80 f9 bd 89 5f 17 3e
       0.11811077 -0.1712798 -0.12182673 0.14782538
000300 ce 68 eb bc 08 1a e9 bc 1f 0d 07 be ef 43 00 3e
       -0.028736498 -0.028454795 -0.13188599 0.12525915
000310 c5 46 3f 3e 1d 0f b7 bc a0 86 52 bd 27 2f 26 be
       0.1867934 -0.022346074 -0.05139792 -0.16228925
000320 31 d7 18 3d b7 fd 05 be 45 eb 36 3e c6 1e 59 bd
       0.037314598 -0.13085066 0.17863186 -0.053007863
000330 64 e8 2c be f5 85 f1 3d 98 5c ca 3d 69 8c a4 3d
       -0.16885525 0.117931284 0.09880942 0.080345936
000340 17 b7 cd bc 76 2f 83 bc 6f 83 9a bd 8b 85 f5 bd
       -0.025111718 -0.016013842 -0.075446 -0.11988362
000350 c5 e9 08 3e c5 76 d2 bd c1 0d 53 3c a8 90 ab bd
       0.13370426 -0.1027656 0.012881697 -0.083772
000360 1e 50 3f 3e b7 86 32 3e 39 7d b2 3d 21 fb 81 bc
       0.18682906 0.17434202 0.087152906 -0.015866818
000370 79 af 22 3e 02 09 bf bd 30 33 0b bc fa 65 2c be
       0.1588725 -0.0932789 -0.008496091 -0.16835776
000380 1b 21 26 be 0f bc 6a 3d 2c b8 fb 3d 8d bc 39 be
       -0.16223566 0.057308253 0.12290987 -0.18138333
000390 be 1f 19 be 22 31 ad 3b a6 f7 0e 3e 33 95 37 be
       -0.14953515 0.005285398 0.13961658 -0.17928009
0003a0 b8 bd 32 3e 79 d5 1c be 97 2d e5 bd 87 00 ae 3d
       0.17455184 -0.15315808 -0.11190336 0.08496194
0003b0 e4 5a aa bd 35 f1 3a bd bb 21 e7 bd cc 07 46 bd
       -0.08318117 -0.04564019 -0.112857305 -0.04834728
0003c0 0c e9 31 be 5d 80 ca 3d 40 41 5c 3c 9e 03 88 bd
       -0.17374057 0.098877646 0.013443291 -0.06641315
0003d0 96 4c b6 bc 10 60 30 be ed 44 1d bd d7 a5 08 bd
       -0.022253316 -0.17224145 -0.03839581 -0.033361282
0003e0 01 d2 ad 3d eb fc 33 3e b3 7b 97 3d 8e 10 9e bd
       0.08487321 0.1757695 0.07396641 -0.07718001
0003f0 45 cd f2 3c c7 24 56 3d c2 44 82 bb 94 d2 02 3e
       0.029638896 0.052281167 -0.0039754817 0.12775642

backbone.model.0.conv.0.bn.weight f4 [12]
000000 86 54 7b 3f 2f 4e 7b 3f dd 20 7b 3f f5 ca 7a 3f
       0.9817585 0.98166174 0.9809702 0.9796594
000010 0e 2e 7c 3f 09 1c 7c 3f ba 47 7c 3f b5 e8 7b 3f
       0.98507774 0.9848028 0.98546946 0.9840196
000020 4b 72 7a 3f 93 94 7b 3f ff 7b 7b 3f 2d c4 7a 3f
       0.9783065 0.9827358 0.9823608 0.9795559

backbone.model.0.conv.0.bn.bias f4 [12]
000000 da 1f aa ba 27 f6 22 b9 23 0c b1 3b 04 8e 39 3a
       -0.0012979463 -0.00015541223 0.005403058 0.0007078352
000010 6c 5c aa 3b b3 4a 71 3b 9e 57 0a 3b 42 67 73 3b
       0.005199006 0.0036818206 0.0021109353 0.0037140404
000020 f0 1e 1e bc a6 37 a4 bb 07 dd d6 bb 3b cc 23 3b
       -0.009650931 -0.0050115166 -0.00655711 0.0024993557

backbone.model.0.conv.0.bn.running_mean f4 [12]
000000 37 ec bf 3d 91 fd 7a be 2f 83 88 be ac fe 86 3d
       0.09371226 -0.2451079 -0.26662585 0.065915436
000010 2c bd 89 3d 92 67 75 bd c5 69 7c be 84 55 1b be
       0.06725535 -0.059913225 -0.24649723 -0.1516934
000020 21 ee 28 be 73 7a 7d 3c 9a 29 1a bd bb e8 89 be
       -0.16497089 0.015471089 -0.03763733 -0.26935372

backbone.model.0.conv.0.bn.running_var f4 [12]
000000 bd e0 af 3b 56 56 2c 3c 93 15 59 3c 5d 6c 8b 3b
       0.005367367 0.010518631 0.013249773 0.0042548613
000010 d5 b9 48 3b d7 de c3 3b 9d 35 38 3c 91 7f d1 3b
       0.0030628343 0.0059774923 0.011243251 0.006393381
000020 45 68 fe 3b 28 94 55 3a af 63 26 3b 91 18 5f 3c
       0.0077638947 0.0008147382 0.0025389006 0.013616697

backbone.model.0.conv.2.conv.weight f4 [16, 12, 1, 1]
000000 f3 cc a3 bd 39 48 4a 3e 20 4e 73 be 6c 80 d8 3d
       -0.07998075 0.19754113 -0.23760271 0.105713695
000010 d1 9e 1a 3e dd d6 0a 3e fb 09 da 3d 93 6d 48 3c
       0.15099646 0.13558526 0.10646435 0.012233156
000020 e6 14 5f 3d 1f 54 27 3e 52 3a d6 3d c9 b9 be 3d
       0.05446329 0.16340683 0.104603425 0.093127795
000030 7b 7a 8c be ff fe 8f 3e 6c a5 f1 bd c2 fd a1 bd
       -0.27437195 0.28124234 -0.1179913 -0.079097286
000040 eb a6 24 3e fe 6a da 3c 17 9a 05 be 89 51 08 3c
       0.16079299 0.026662346 -0.13047062 0.008320221
000050 cf 5d d1 bd 7c 85 73 be af ff 2d 3e 4c a3 85 be
       -0.10222971 -0.23781389 0.16992067 -0.26101148
000060 36 95 dd bd 3d ed e3 3c 5d 2c 87 bc bd 69 04 be
       -0.10819475 0.027823085 -0.016500646 -0.12930961
000070 de 6c 37 be 28 21 8b 3e 77 14 5e 3d ae 36 f9 bd
       -0.17912623 0.27173734 0.054218736 -0.121686324
000080 16 9c 3f 3e 12 ce 11 3e e1 80 05 be 76 de be bd
       0.18711886 0.14238766 -0.13037445 -0.09319775
000090 d2 d5 83 bd 59 d7 7b bd 67 53 41 be 5d ae 1e 3e
       -0.06437267 -0.06148467 -0.18879472 0.15496202
0000a0 10 d8 57 3d 98 4a cd 3d c7 43 09 be e3 e3 b5 3d
       0.052696288 0.10023993 -0.13404761 0.088813566
0000b0 73 c3 55 bd 63 0a 17 3d d7 8b 8a bb 2f 72 2a bb
       -0.052188348 0.03687514 -0.004228096 -0.0026008
0000c0 98 d3 e6 bd c9 ba 05 bc 25 35 21 3e c0 f8 ee bd
       -0.11270827 -0.008162209 0.1574293 -0.11668539
0000d0 07 b0 02 bd 94 0d 5d be 0a b6 49 3d 30 e0 12 3e
       -0.031906154 -0.21587211 0.04924587 0.14343333
0000e0 2d 28 53 3e 5c 5f ce bd d7 06 27 be 59 78 b4 3d
       0.20620795 -0.10076782 -0.16311203 0.08812017
0000f0 1a 21 53 be d1 60 e6 3d 14 3d e7 bd b3 4b 15 be
       -0.20618096 0.11248935 -0.112909466 -0.14579658
000100 6d a2 22 3e ec 60 1e bc 89 c3 69 be 8a e6 b8 bc
       0.15882273 -0.009666663 -0.22828497 -0.022570867
000110 03 8c 6d 3e 77 10 c9 3d 06 42 11 3e e9 0c 76 3e
       0.23197941 0.098175935 0.14185342 0.24028362
000120 d3 b0 e7 bd 6f 81 73 be 0b 0f 53 be 08 ae cc 3d
       -0.113130234 -0.23779844 -0.20611207 0.09994131
000130 77 24 cd bd 89 5c c9 bd 3a ab 70 be 8f 3a 23 be
       -0.10016721 -0.09832103 -0.23502818 -0.15940307
000140 e8 cc c3 bd b8 73 79 3d f7 49 e2 bd e5 18 77 3d
       -0.09560567 0.060901374 -0.11049264 0.060326476
000150 ac 6e 70 be f5 95 38 3e 6f 94 8e be 7f 15 30 be
       -0.23479718 0.18025954 -0.2784762 -0.171957
000160 22 be 1f 3e 47 a3 44 bd ed 03 07 be f4 f3 31 bd
       0.15599874 -0.048007276 -0.13185091 -0.043445542
000170 f1 12 5d 3e 33 08 8c 3d 01 ac 2a 3e a7 e0 47 be
       0.21589257 0.068375014 0.16667177 -0.19519292
000180 4e 19 76 3c 2c 23 3c 3e e6 1f bc bd 55 65 b9 bd
       0.015020682 0.18372792 -0.09185772 -0.09052531
000190 ce 4b 78 bd 82 b0 ce 3d e9 fa 07 be e7 1c 91 be
       -0.060619168 0.1009226 -0.13279308 -0.28342363
0001a0 f9 c0 82 3e 19 5d e3 3d 19 1e 1b be d5 b2 d1 bb
       0.2553785 0.11101741 -0.151482 -0.0063994923
0001b0 71 86 78 3e 17 81 01 bd 8f b8 f9 3c 44 2a c9 3d
       0.24270035 -0.03161725 0.030483512 0.09822515
0001c0 27 8e 21 be 54 81 a9 3d e9 5c 06 bb 2c cc 09 bd
       -0.15776883 0.082766205 -0.0020502156 -0.03364198
0001d0 81 cf 5f bd b9 07 64 3e 66 eb f2 bd ca 49 fd bc
       -0.05464125 0.22268571 -0.11861305 -0.030918974
0001e0 a9 e9 22 3e 6c 57 b0 3d 14 39 50 3d 46 9f 22 3d
       0.15909447 0.086104244 0.050835684 0.039702676
0001f0 7e fc 09 3e a5 73 6c 3e 96 81 f4 bd b7 6e 56 3e
       0.13475224 0.2309099 -0.11938779 0.20940672
000200 e1 9f 17 be 34 9f 89 3e 65 ea 5c 3e ca d7 b0 3d
       -0.14807083 0.26879275 0.2157379 0.086349085
000210 66 03 b1 3c 32 0b 4c 3e ff fd 32 bc d0 84 24 be
       0.021608066 0.19926146 -0.010924815 -0.16066289
000220 15 86 eb bd 3f bf cf 3d 33 f0 96 3d 0a ec 3b 3c
       -0.115001835 0.10143899 0.07370033 0.01146985
000230 cb a9 87 be 61 7a b5 bd 06 90 6b 3e 8b d7 57 3d
       -0.2649673 -0.088612325 0.2300416 0.052695792
000240 da dd 66 3e dc bc 33 be e0 d3 2a 3c 29 c2 2a 3e
       0.22545567 -0.17552513 0.0104264915 0.16675629
000250 96 51 de bd dd 39 89 39 16 e2 81 3e f4 bf 1a 3d
       -0.10855405 0.00026173788 0.25367802 0.037780717
000260 ea d5 66 bd 4a c1 1a 3e 5b 38 d5 bd f8 01 a9 bd
       -0.056356348 0.15112796 -0.104111396 -0.08252329
000270 69 2d c6 bd be 7a ac 3d cb 20 8c 3e 82 da 86 39
       -0.0967663 0.08421849 0.2736877 0.00025721273
000280 c0 8d db 3d 73 79 4c be ff fc 4a be cd 86 87 3c
       0.10720396 -0.19968204 -0.19823073 0.01654377
000290 f0 e4 0a 3e dc b6 46 3e 0d 7c 7c be f5 ae e7 3d
       0.13563895 0.19405693 -0.24656697 0.11312667
0002a0 55 03 99 bd b1 18 0f be cf f2 1c bd 28 04 92 be
       -0.07471339 -0.13974263 -0.038317498 -0.28518796
0002b0 dc 97 33 3e 18 14 23 3e 89 9b 4a 3e a8 95 c1 3d
       0.17538399 0.15925634 0.19785894 0.09452373
0002c0 e8 48 18 be 34 9e 59 3e e8 a9 28 bd 28 3f cc bd
       -0.14871562 0.21251756 -0.04117766 -0.099729836
0002d0 19 1f 7e be e2 31 44 be ab 7d 4f 3e 44 11 31 3d
       -0.2481655 -0.19159654 0.20262782 0.043229356
0002e0 23 9f 5c 3e bf ea a9 3d 52 69 ee 3d 46 e7 15 bd
       0.21545081 0.082967274 0.11641182 -0.036597513
0002f0 18 44 88 be b3 fe 8e be c3 cf 94 3d 8a 7e a9 bd
       -0.2661445 -0.27928695 0.0726619 -0.082760885

backbone.model.0.conv.2.bn.weight f4 [16]
000000 ab b5 79 3f 0c 51 7a 3f a2 63 7a 3f 9f 24 7b 3f
       0.9754283 0.9777992 0.9780828 0.98102754
000010 49 a1 7a 3f d7 9a 7a 3f 64 6d 7a 3f 77 a7 79 3f
       0.9790235 0.97892517 0.97823167 0.97521156
000020 78 c8 7a 3f 18 d6 79 3f 18 0d 7b 3f 55 a5 7a 3f
       0.9796214 0.97592306 0.98066854 0.97908527
000030 09 d7 7a 3f ec de 79 3f a4 84 7a 3f b5 18 7a 3f
       0.9798437 0.97605777 0.97858644 0.9769395

backbone.model.0.conv.2.bn.bias f4 [16]
000000 78 14 1d 3c 20 fd 09 3c 18 fa 8b ba 6d bc be ba
       0.0095874 0.008422166 -0.0010679392 -0.0014552005
000010 1d fe 72 bb d7 74 c6 bb 5b 31 8f 3c bf 30 00 3c
       -0.0037077733 -0.006056409 0.01747959 0.007824122
000020 37 10 d2 3b 6b bf e6 ba be 66 87 3b 10 71 02 3c
       0.0064106244 -0.0017604654 0.004132121 0.0079615265
000030 26 07 69 3a 3e 42 46 bb ad 58 06 3b 9e 23 8e 3b
       0.000888931 -0.0030251886 0.0020499632 0.004337742

backbone.model.0.conv.2.bn.running_mean f4 [16]
000000 87 95 1d 3e c3 25 d3 bd fe a7 bc bc 92 62 c9 bc
       0.15389071 -0.10309937 -0.023029324 -0.024583135
000010 a5 87 47 bb 44 11 46 3d bf 87 78 be 3e 94 93 bd
       -0.003044584 0.04835631 -0.24270533 -0.07206009
000020 5e 34 19 bd ca f1 12 3d 92 46 6a 3e b4 3f 94 3c
       -0.037403457 0.03587512 0.22878483 0.018096782
000030 4d 5d 61 3d 1a 19 18 3d d3 15 7a bb 18 3c 78 bd
       0.05502062 0.037133314 -0.003815998 -0.060604185

backbone.model.0.conv.2.bn.running_var f4 [16]
000000 75 2a 9e 3d ae 08 c1 3d 7c b1 56 3d f5 93 73 3d
       0.07722942 0.09425484 0.052415356 0.059467275
000010 a1 8c 16 3e a1 45 7c 3d ad d9 aa 3e e2 2b 4d 3d
       0.14702083 0.06158984 0.33369198 0.050090678
000020 49 b0 5c 3d e4 7e a6 3d 77 f8 1e 3e 99 8e e7 3d
       0.053879056 0.08129671 0.1552447 0.11306495
000030 80 20 89 3d 1b 4e a1 3d b0 55 02 3e a4 b9 e6 3d
       0.06695652 0.078762256 0.12728 0.11265877

backbone.model.0.downsampling.conv.weight f4 [16, 3, 1, 1]
000000 e2 1d 09 3f c7 a1 ac be 01 6c 5f be 89 01 f4 3e
       0.5356122 -0.33717176 -0.21818544 0.4765742
000010 51 e0 64 bd ed 1c 8f bd a2 4a c1 be 7e 50 12 be
       -0.055877987 -0.06987939 -0.37752253 -0.14288518
000020 21 2c 36 3e 9a 64 ca be a6 35 e7 3d cb 6f 98 3d
       0.17790271 -0.39529878 0.112895295 0.07443198
000030 09 6e 92 3e 1f 6e 09 3f d8 96 f6 be 71 56 f7 3e
       0.28599575 0.53683656 -0.4816196 0.48308137
000040 55 e5 04 bf 65 3e 93 3e b0 72 01 bf 26 ba 05 3f
       -0.5191243 0.2875854 -0.50565624 0.52237165
000050 42 10 46 be b7 a4 8c bd c7 2a f8 bd 47 62 bd 3e
       -0.1934214 -0.06867354 -0.12117534 0.36989042
000060 31 e8 cf be 76 76 91 be 0b f8 cf 3e fb 36 11 3f
       -0.40606835 -0.2841069 0.4061893 0.5672452
000070 21 41 c7 be 72 c8 d8 be d1 8d c6 be 90 86 87 3e
       -0.38916877 -0.42340428 -0.38780072 0.2646985
000080 b3 7f c2 be f4 c0 15 be 81 f4 50 be ea 43 e4 be
       -0.37988052 -0.14624387 -0.20405771 -0.44583064
000090 89 14 94 3e e2 8b 6b be 49 c7 ff be 6b fb ea 3d
       0.28921917 -0.2300258 -0.4995673 0.114737354
0000a0 10 f8 c3 3d dc 95 c1 3e 67 df f9 be 5c 2e 14 3e
       0.095687985 0.37809646 -0.48803255 0.1447081
0000b0 ba cc ec be 23 53 f8 be 9f f7 be 3d af 2d 8e be
       -0.46249944 -0.48500928 0.09324574 -0.2776923

backbone.model.0.downsampling.bn.weight f4 [16]
000000 e7 76 7e 3f ea 2b 7a 3f c7 47 7a 3f e3 80 7a 3f
       0.9940018 0.9772326 0.97765774 0.97852916
000010 e6 ef 79 3f f0 92 79 3f 27 48 7c 3f 2d 35 7c 3f
       0.9763168 0.97489834 0.98547596 0.9851864
000020 f0 58 7a 3f 85 ed 79 3f af 4c 7d 3f e2 2b 7a 3f
       0.9779196 0.9762805 0.98945135 0.9772321
000030 10 44 7a 3f 23 f3 79 3f b7 47 7b 3f 8d 75 7a 3f
       0.97760105 0.9763662 0.98156303 0.9783562

backbone.model.0.downsampling.bn.bias f4 [16]
000000 b7 2d 7b 3c e1 31 2d 39 da 32 ba 3b ef 60 1c 3b
       0.0153307235 0.00016517147 0.0056823315 0.0023861488
000010 4a ef 9d bb 8a 69 f0 bb b1 db 99 3c 62 19 3a 3c
       -0.0048197852 -0.0073368 0.018781515 0.011358591
000020 eb 2c e2 3b f9 16 e3 3b 0e c3 a7 3b e6 f2 93 3b
       0.0069023273 0.006930229 0.005119688 0.0045150397
000030 81 01 08 3c 06 81 b6 bb 82 43 b0 3a 74 66 66 3b
       0.00830114 -0.00556958 0.0013447853 0.0035156282

backbone.model.0.downsampling.bn.running_mean f4 [16]
000000 48 b7 9b bc 61 fa 0c 3e 5e e5 09 be 99 c5 a2 bd
       -0.019008294 0.13767387 -0.13466403 -0.07947845
000010 da 97 07 3e 45 c6 cc 3d 9f 40 8a bd 3e 91 a3 3d
       0.1324152 0.099987544 -0.06750607 0.07986687
000020 10 1e dc bd a7 95 ec bd 55 10 54 be 85 ce aa be
       -0.107479215 -0.115519814 -0.20709355 -0.33360687
000030 24 b0 45 be 91 f0 7c 3e 81 2d aa be 91 29 8c be
       -0.19305474 0.24701144 -0.33237842 -0.27375463

backbone.model.0.downsampling.bn.running_var f4 [16]
000000 78 77 8a 3a bf 46 86 3b 32 c1 82 3b 53 6a d5 3a
       0.0010564169 0.004097789 0.003990316 0.0016282297
000010 cc df 9b 3b f0 48 0c 3b 4d 79 a6 3a db 17 b5 3a
       0.0047569033 0.0021405779 0.0012700945 0.0013816314
000020 78 c5 6b 3b 2f e7 71 3b 58 7e f9 3b 23 75 9d 3c
       0.0035975855 0.0036911478 0.0076139383 0.019220894
000030 d2 c1 e7 3b af c0 2c 3c 9b de 9e 3c a2 47 5b 3c
       0.0070726657 0.010543986 0.019393256 0.013383778

backbone.model.1.conv.0.conv.weight f4 [64, 16, 3, 3]
000000 07 35 96 bc c1 77 9c bd f2 61 58 3d e5 50 ac bc
       -0.018335832 -0.07640029 0.052827783 -0.021034667
000010 8f 93 6a 3d 51 08 1f bd b2 4b 97 bd 4c c5 07 3d
       0.05726963 -0.03882629 -0.073874846 0.03314714
000020 b9 3e 72 3d e6 a5 1f 3c 31 88 80 3d b3 c1 17 bd
       0.05914185 0.009744143 0.062759764 -0.03704996
000030 2e 1e 52 bd 6c 61 85 bd eb 16 73 bd bd 71 98 ba
       -0.051298313 -0.065127224 -0.05934803 -0.0011630576
000040 a7 fd 26 3d 7b 5a 72 bd aa b4 e0 3c 04 8f 87 bd
       0.040769245 -0.05916832 0.027429897 -0.06619075
000050 1d 7b 86 ba bc fa 7f 3b b2 ff 8b 3c 56 4d 9d bd
       -0.0010260079 0.0039059361 0.017089698 -0.07680766
000060 b9 a7 a0 3c 51 58 d3 bb 58 2a 83 3c 30 ab 76 3d
       0.019611226 -0.006449737 0.016011402 0.06022185
000070 95 a1 8b 3d 1b af 5d 3d 6b 4c dd bc 70 b9 27 bd
       0.06817929 0.05412207 -0.027013978 -0.04094833
000080 95 21 0d 3d 1a fd 2f bd 43 df 66 bc 50 88 11 bd
       0.034455854 -0.042965986 -0.014091316 -0.03553039
000090 7b 2d 4d 3c 87 2f a2 bc dc 50 53 3d 0a 1a e7 bc
       0.01252305 -0.019798053 0.051590785 -0.028210659
0000a0 38 ac 7c bd 07 de 6a bc 46 2a ea 3c c9 1d a0 bd
       -0.061687678 -0.014335162 0.02858461 -0.07818181
0000b0 c5 0d 9a bd 62 18 43 3d 1b de 51 3a 53 ee e6 3c
       -0.075221576 0.047630675 0.00080058136 0.028189814
0000c0 96 d4 e1 3c 78 c8 a8 3c 4b 10 1b 3d dc a4 64 3d
       0.02756719 0.020603403 0.037857335 0.055821285
0000d0 52 9f 71 bd f1 16 3f 3c e8 11 6d 3d ee 4e 6a 3d
       -0.05898983 0.0116631845 0.057878405 0.05720418
0000e0 c5 10 80 3c 5d f2 9d 3c db db 38 3d ef fe 45 bd
       0.015632996 0.019280607 0.045131546 -0.048338827
0000f0 fa 9f ed 3c 17 8e 37 3d 46 cc f8 bc e6 b0 a1 3d
       0.029006947 0.04481324 -0.030370843 0.07895069
000100 30 08 26 3d 29 42 99 bd 11 69 eb bc 14 9e 75 bc
       0.040535152 -0.07483322 -0.028736623 -0.014991302
000110 4f 90 46 3c 54 e3 7a bd 64 57 84 3c c0 89 83 3d
       0.012119367 -0.061251953 0.016154952 0.06422758
000120 e8 dc 86 bd 00 be 12 3c 1d cf 09 3d 56 d2 50 bb
       -0.06585103 0.008956432 0.033644784 -0.0031863651
000130 ad c5 23 bd 30 41 8e bc 92 0a 96 bc bd 80 92 3d
       -0.03998344 -0.017365068 -0.018315587 0.07153461
000140 22 0b 4d 3d 48 a9 32 3d fe d2 3b bd 02 c5 18 3d
       0.050059445 0.04361847 -0.045855515 0.037297256
000150 b4 c1 46 3d 6d b9 c8 bb fc f3 a6 3b 5e 77 49 3d
       0.048524573 -0.00612562 0.005095003 0.049186103
000160 ad 01 21 bc d6 10 9f 3c f0 0a 9c 3c f7 07 ec bb
       -0.00982706 0.019417208 0.019048184 -0.007203098
000170 22 51 fb bc 96 ed b5 3c 40 c4 26 bd da 1d 95 3d
       -0.030678336 0.022208016 -0.040714502 0.07281084
000180 85 64 93 3d ab f4 50 bd 19 16 5a 3d 19 30 47 bd
       0.07196907 -0.051014584 0.05324373 -0.048629854
000190 bd 9e 96 bc 70 24 ae 3c 4a 5c d8 bc f8 70 98 bd
       -0.01838624 0.02125761 -0.026411194 -0.07443422
0001a0 9f 08 98 bc 7c 9b 81 bd ce 95 33 3d 08 4e 7c bd
       -0.018558798 -0.063284844 0.043844037 -0.061597854
0001b0 70 35 e8 bc f1 02 e4 b9 88 f6 1c bd c0 d1 5e bd
       -0.028345793 -0.0004348974 -0.038321048 -0.054399252
0001c0 94 37 3c 3c 9b 27 af bc df e1 94 bd 42 70 a6 3d
       0.01148786 -0.02138119 -0.07269644 0.0812688
0001d0 da fc 21 3d 92 9b 5b 3d 1a 6e 7a 3d c5 c8 7e bd
       0.03954778 0.05361516 0.061140157 -0.062203187
0001e0 bb 92 23 bd be e3 60 3d 02 6d 8b bd a9 ff 49 bc
       -0.039934855 0.054904692 -0.06807901 -0.012329021
0001f0 24 c5 f5 bc 11 96 6e 3d 63 ae 0a 3d 2d f8 63 bd
       -0.03000123 0.058248583 0.033857714 -0.0556566
000200 7f 0c 8c 3b 8f 35 8a 3d 4a 66 f8 3c ff 38 8e 3d
       0.0042739506 0.06748497 0.030322213 0.06944465
000210 97 1f 0e 3c 47 68 60 3d 41 b8 02 3d e3 d8 0e 3d
       0.008674524 0.054786947 0.031914 0.034874808
000220 9e 23 8a bc b6 d0 66 3c 39 a3 5b bd 14 5c 56 39
       -0.016862687 0.0140878465 -0.053622458 0.00020442932
000230 0a a3 c0 3c a7 77 15 3b 22 97 a3 bc c4 0d 41 3d
       0.023515243 0.0022806914 -0.019969527 0.04713227
000240 05 72 48 bd e9 23 a2 bc 63 18 81 bd 5c 90 3c 3d
       -0.048936862 -0.019792514 -0.063034795 0.04603611
000250 b7 c0 2f bd 59 a4 54 bc 93 4f 2a 3d 4b a3 b7 3c
       -0.042908397 -0.012978637 0.041579794 0.022416731
000260 6c 4f 8d 3d f2 55 0b 3d a3 c8 a1 3c f3 8e 3b bd
       0.06899914 0.03401751 0.019748991 -0.045790624
000270 c1 a0 16 bd de 9d d0 bc 57 c3 7f bc 18 f2 b7 3b
       -0.0367744 -0.025465902 -0.0156105375 0.0056135766
000280 b5 d5 8b 3d 55 7c 92 3d 77 64 71 bc 25 70 6b 3d
       0.06827871 0.07152621 -0.014733425 0.057479996
000290 a1 4d dc 3c fd 92 48 bd 45 c2 24 bb e8 48 44 3d
       0.026892485 -0.048968304 -0.0025140208 0.04792109
0002a0 76 29 1c 3d b5 70 81 3d 67 4e 4e bc f6 72 9f bc
       0.038125478 0.06320325 -0.012591935 -0.019463997
0002b0 d5 e6 8f 3c 72 1f 67 3d 4b 7a 9b bc 21 f7 08 bd
       0.017566124 0.056426473 -0.018979212 -0.033438805
0002c0 f5 1d 7c 3d 31 5b 9e 3d 39 55 de bc e8 c6 29 bb
       0.061552007 0.07732237 -0.027140247 -0.002590591
0002d0 6b a9 ef bc af e6 35 bc 3b ee e5 bc b3 73 4a bd
       -0.02925559 -0.011102363 -0.028067699 -0.049426746
0002e0 cc 11 6b bd 9d fe b1 3c 20 c3 f9 bc b0 75 52 bb
       -0.05739002 0.021727854 -0.03048855 -0.0032113604
0002f0 10 a0 16 3d 08 c5 1d bd 0d 07 52 3c ce ee 07 3d
       0.03677374 -0.03851798 0.012819064 0.033186726
000300 f2 6e cc 3c 03 e9 a0 3d e8 18 02 3d 2f 04 11 3d
       0.024955247 0.078569435 0.031762034 0.03540438
000310 45 18 cc bc 05 51 1e bc 7c 99 be bb 6a 43 9d 3d
       -0.024913916 -0.009662871 -0.0058166366 0.07678874
000320 4a 36 c8 3a db 01 2d bb 22 db c5 3c 86 0d 72 bd
       0.0015274968 -0.002639881 0.024152342 -0.05909493
000330 86 e7 18 bd 1d 2b 3c bd be 91 80 3d 20 1b a8 3d
       -0.037330173 -0.045939554 0.06277798 0.08208299
000340 7b 5c 6b bc a2 e5 ae 3d e1 eb 02 3d 01 2e 8d 3d
       -0.014365311 0.08539893 0.031963233 0.0689354
000350 9d c3 86 3d dc d4 7a 3d 8c 53 0c bd 11 39 b9 3c
       0.06580279 0.061238155 -0.034259364 0.02261022
000360 e3 8e 28 3d 71 4d 0f 3d fe 6b 55 3d fd db 58 3c
       0.041151892 0.034985963 0.052104943 0.013236043
000370 d8 a7 88 3c cc c2 88 bd 55 32 77 bd f4 79 c2 3c
       0.016681597 -0.066777796 -0.060350735 0.023739792
000380 b0 60 cd 3c b3 d0 be bc da cd 8b bc 39 fd 80 bd
       0.025070518 -0.023292875 -0.017065931 -0.062982984
000390 59 c3 7a 3a d8 2d 41 3d 73 e0 1b 3d 6d 52 3d bd
       0.0009565852 0.04716286 0.03805585 -0.046221185
0003a0 ba 7f 8a bb 05 c4 78 bd f0 48 86 3c 77 82 8e 3d
       -0.004226652 -0.060733814 0.016392201 0.06958478
0003b0 7b bd 04 bb 7b 40 93 bd f8 61 7b bd bd 96 81 3d
       -0.002025454 -0.07190033 -0.061372727 0.06327579
0003c0 38 f3 38 bd 79 e9 7d bd a6 a9 54 3d 2b ec 1e bd
       -0.045153826 -0.061990235 0.0519196 -0.038799446
0003d0 17 6b a3 bd 17 ff c3 bc 45 c8 2b 3b 36 0f 9d 3c
       -0.0797941 -0.023925347 0.00262119 0.019172292
0003e0 48 d7 35 3d 5d 05 5a 3d f0 ac ea bc 3d 23 8a 3d
       0.04439476 0.05322777 -0.028646916 0.067450024
0003f0 57 87 b6 3b 68 4a 89 bd 6a 26 8d 3d 0c ea c4 bc
       0.005570333 -0.06703645 0.068920925 -0.024037383

backbone.model.1.conv.0.bn.weight f4 [64]
000000 d0 bd 79 3f 6b eb 79 3f b5 51 79 3f c9 06 7a 3f
       0.97555256 0.97624844 0.973903 0.97666603
000010 6e c6 79 3f 1d 73 79 3f f9 a7 79 3f 01 bc 79 3f
       0.97568405 0.97441274 0.9752193 0.97552496
000020 8c 0a 7a 3f bf 43 79 3f fc d3 79 3f b6 46 79 3f
       0.97672343 0.97369 0.9758909 0.9737352
000030 1e 8e 79 3f e6 45 79 3f 30 4c 79 3f f6 56 79 3f
       0.9748248 0.9737228 0.9738188 0.97398317
000040 99 68 79 3f ff 62 79 3f 05 a4 79 3f f5 98 79 3f
       0.9742523 0.9741668 0.975159 0.9749902
000050 c8 41 79 3f 56 51 79 3f d9 83 79 3f a5 52 79 3f
       0.97366 0.97389734 0.9746681 0.9739173
000060 ca db 79 3f 30 63 7a 3f 1f 49 79 3f d3 ef 79 3f
       0.97600996 0.978076 0.973772 0.9763157
000070 11 b1 79 3f 58 73 79 3f 2c 6b 79 3f 47 bf 79 3f
       0.97535807 0.97441626 0.97429156 0.9755749
000080 82 77 79 3f 05 35 79 3f 2a 83 79 3f f1 64 79 3f
       0.9744798 0.97346526 0.97465765 0.9741965
000090 fa e7 79 3f 63 a4 79 3f 7c d2 79 3f 03 ad 79 3f
       0.97619593 0.9751646 0.975868 0.9752962
0000a0 c6 8b 79 3f 46 9c 79 3f 71 44 79 3f a5 a7 79 3f
       0.974789 0.9750408 0.9737006 0.9752143
0000b0 8f c1 79 3f 9e 5a 79 3f a9 87 79 3f 1d 76 79 3f
       0.9756097 0.97403896 0.97472626 0.9744585
0000c0 21 85 79 3f 9e 30 7a 3f 3a 5f 79 3f 9b 78 79 3f
       0.97468764 0.97730434 0.9741093 0.97449654
0000d0 9a b1 79 3f 6f a7 79 3f 16 57 79 3f e2 64 79 3f
       0.97536623 0.9752111 0.9739851 0.9741956
0000e0 c8 62 79 3f 21 74 79 3f 83 9e 79 3f f1 b3 7a 3f
       0.97416353 0.97442824 0.97507495 0.9793082
0000f0 b9 28 79 3f 26 b4 79 3f fd 01 7a 3f e8 8a 79 3f
       0.9732776 0.9754051 0.97659284 0.9747758

backbone.model.1.conv.0.bn.bias f4 [64]
000000 c5 a8 f8 ba a1 45 3e 3b 80 90 b4 ba 79 61 2f 3b
       -0.0018971196 0.0029033201 -0.0013775975 0.002676098
000010 25 9a f0 ba 54 c1 bf 3a 74 9d 0c 3c ac d4 b3 ba
       -0.0018356486 0.001462976 0.008582462 -0.0013719997
000020 f0 3c 00 3c 20 73 c1 bb 26 9f 30 3b 69 74 30 bb
       0.007827029 -0.0059036165 0.0026950329 -0.0026924855
000030 c5 4c c2 bb 7d 0e 5d bb e0 95 a2 3a b3 2c c8 3b
       -0.005929562 -0.003373056 0.0012404285 0.006108844
000040 af f4 67 bb e0 56 e9 3a 62 da 6c 3b e7 72 fc ba
       -0.0035393646 0.001780238 0.0036140908 -0.0019260318
000050 dc e9 29 bb f4 01 ac ba 00 4a 6e ba e7 88 bc 3a
       -0.0025926745 -0.0013123141 -0.00090900064 0.0014384062
000060 52 ef 38 bb 48 ad a5 3a a6 6b 35 3b 05 6d 48 3c
       -0.0028218818 0.0012640143 0.0027682572 0.0122330235
000070 e8 d7 10 3c 9b b5 74 3b 95 dc dc ba 43 e1 6c 3b
       0.008840539 0.003733969 -0.0016850407 0.0036145009
000080 4d 6c cc bb 03 c5 a0 3b 11 a6 58 3b 63 0d 0e 3a
       -0.0062384964 0.004906298 0.0033057968 0.0005418865
000090 5a da 86 3b f3 2d e5 b9 e7 c6 aa bb 93 2c ed 3a
       0.004115385 -0.00043712519 -0.0052116993 0.0018094949
0000a0 d5 24 db ba 55 5b a3 3b 56 59 d3 39 a4 42 36 3c
       -0.0016719351 0.004985253 0.00040311617 0.011124287
0000b0 35 94 82 ba 18 84 d4 bb ba 47 84 3c 46 c6 9e 3a
       -0.0009962382 -0.0064854734 0.016147483 0.0012113533
0000c0 84 a0 80 bb a1 11 06 3c a3 25 8b bb 4c 02 12 3b
       -0.003925385 0.008182914 -0.00424643 0.00222792
0000d0 35 b1 2e 3c b8 e7 43 bb 73 37 96 bb 19 6f 50 bb
       0.010662367 -0.0029892754 -0.004584247 -0.00318045
0000e0 1c ce 13 bc 3f cb fd bb 3f 43 cc 3a 92 02 9b 3a
       -0.009021308 -0.007745176 0.0015584006 0.0011826328
0000f0 27 1d a9 bb c6 dd f2 3b 50 f9 2e 3a c2 57 95 3b
       -0.005160946 0.0074116914 0.00066747237 0.0045575807

backbone.model.1.conv.0.bn.running_mean f4 [64]
000000 b7 d9 cd 3c 27 08 8c 3e f3 8b 94 be 74 3f b0 3d
       0.025128229 0.2734997 -0.29013023 0.08605853
000010 3b 81 83 3e 30 62 85 3d cd ce 92 3d 79 2a 04 3e
       0.25684533 0.065128684 0.0716835 0.12906827
000020 61 76 50 3e eb 86 1d be 1e 2b c2 bd 70 02 39 be
       0.20357658 -0.15383498 -0.0948088 -0.18067336
000030 38 b7 8e 3e 92 85 a6 be 82 d7 e3 be b4 cf f9 3d
       0.2787416 -0.3252378 -0.44500357 0.12197819
000040 db 46 a9 be 8e f8 83 be 64 43 8f 3d 79 6a 2b be
       -0.3306187 -0.2577557 0.069952756 -0.16739835
000050 31 ff bc be 82 ee 42 be 41 36 74 3d 17 e7 53 3e
       -0.36913446 -0.19036296 0.059622053 0.20693623
000060 09 37 b0 3e 6d 85 07 3f 48 8e e1 be 8a 31 06 be
       0.34416988 0.52937967 -0.44053864 -0.13104835
000070 02 bc 90 3d b9 f7 9e be 0b 27 24 be b9 c7 95 3c
       0.0706711 -0.31048372 -0.16030519 0.018283712
000080 40 a7 df 3d 04 64 86 3e c8 08 c0 3d e5 89 48 be
       0.10920572 0.2624818 0.09376675 -0.19583853
000090 24 75 9f 3d 60 ff c1 bd 73 a6 49 3e cf cc 04 3d
       0.07786015 -0.09472537 0.19692402 0.032421883
0000a0 4d 45 19 3e 97 30 a7 3d cf 8a 06 be cd 5b 50 bd
       0.14967842 0.08163565 -0.13138889 -0.050868798
0000b0 46 0c 92 3d 8c c1 2a be 6a c9 2b bd 64 0a c3 bd
       0.07131247 -0.16675395 -0.04194013 -0.09523466
0000c0 a0 93 ed bc 89 e8 22 be b9 6b 81 3e 0c 3f 4e 3d
       -0.029001057 -0.15909018 0.25277498 0.050353095
0000d0 ea 57 7b 3d 94 27 22 3e 5d 32 83 3c 1e 86 ef 3e
       0.06136314 0.1583541 0.016015226 0.4678201
0000e0 ba a5 9a 3d 5c f2 0c bc 5c d1 0c 3e cb 6b ed 3d
       0.07551141 -0.008602705 0.1375174 0.115928255
0000f0 a7 c8 3a 3e f4 33 34 3e d6 f6 de bd 76 ea a2 3e
       0.18240605 0.17597944 -0.10886924 0.31819504

backbone.model.1.conv.0.bn.running_var f4 [64]
000000 96 c0 07 3e aa 24 6d 3e fd f9 46 3e f1 f8 cb 3d
       0.1325706 0.23158517 0.194313 0.09959591
000010 3c 34 3e 3e 1e 26 2b 3e 1b 5b 22 3e eb 4f 60 3e
       0.18574613 0.1671376 0.15855066 0.21905486
000020 22 61 d6 3e 47 69 0e 3e d2 40 40 3e df e0 39 3e
       0.4187098 0.13907348 0.18774727 0.18152188
000030 ae ac 50 3e 78 43 13 3e 1c 84 c4 3e 1e 41 b5 3e
       0.20378372 0.14381206 0.3838204 0.35401243
000040 07 52 df 3e 9c 83 71 3e 38 8f 1e 3e ba 97 17 3e
       0.4361727 0.23585361 0.15484321 0.14803973
000050 f4 75 c2 3e 66 05 3f 3e dc 1c 79 3e d3 d2 6f 3e
       0.37980616 0.18654403 0.24327415 0.23420267
000060 61 b0 42 3f c6 47 7f 3f c0 94 d7 3e 55 b2 22 3e
       0.7605038 0.9971889 0.42105675 0.15888341
000070 e6 c0 28 3e eb ac a7 3e 2b 81 ab 3e ec a1 0d 3e
       0.16479835 0.32749113 0.33496985 0.138313
000080 24 a4 4b 3e 3e 53 61 3e e4 a5 8b 3e 95 ea 19 3e
       0.19886833 0.2200441 0.27275002 0.15030892
000090 81 bf 33 3e 4d ef 06 3e fc dd 7a 3e 3c 50 ba 3e
       0.17553522 0.13177224 0.24498743 0.3638934
0000a0 8c e9 7e 3e 1c d1 49 3e 63 f2 73 3e b0 88 86 3e
       0.24893779 0.19708675 0.23822932 0.2627616
0000b0 76 5d 02 3e ad a4 09 3e b9 41 f3 3d 04 b3 33 3e
       0.12730965 0.13441725 0.1187777 0.17548758
0000c0 7b df 8c 3e 9a 19 23 3e c6 a3 75 3e 95 55 ef 3d
       0.27514252 0.15927735 0.23988256 0.11686245
0000d0 4f af 5e 3e 1c de 12 3e fd 5f 05 3e d2 81 e7 3e
       0.21746562 0.1434254 0.13024898 0.45216233
0000e0 a2 89 15 3e d5 71 9e 3e c3 b8 34 3e e9 f6 a9 3e
       0.14603284 0.30946222 0.17648606 0.3319619
0000f0 dc b6 1f 3e 8d 31 84 3e 68 27 bb 3d ae 37 92 3e
       0.15597099 0.25819054 0.091383755 0.28558105

backbone.model.1.conv.2.conv.weight f4 [24, 64, 1, 1]
000000 04 05 a3 bc 18 51 0e 3d 21 e7 e8 bd bf 65 1e 3d
       -0.019899853 0.034745306 -0.11372209 0.03867125
000010 b1 3c 0d bd b4 e7 a7 3d df f5 c1 bc e0 1b ac 3d
       -0.034481708 0.08198491 -0.02367681 0.08403754
000020 7e b7 81 3b db 8d 02 bd e1 f8 d9 3c 06 88 ec 3c
       0.0039586416 -0.031873565 0.026607933 0.028873455
000030 02 5f 0c 3b 28 a9 e2 bb 4a 85 01 3d 84 b0 65 3d
       0.0021418934 -0.0069171377 0.031621255 0.05607654
000040 37 78 55 bb 59 6a ab bd d3 a8 dc bd 67 fb c0 3c
       -0.0032572874 -0.083698936 -0.10774388 0.023557378
000050 2a 28 e3 bd b0 59 83 bd 54 72 a9 3c 7f 59 72 3b
       -0.11091645 -0.06413591 0.020684399 0.0036979613
000060 09 50 b5 bd a3 2c 70 bd 04 a1 ba bc a1 31 44 bd
       -0.08853156 -0.05863632 -0.022781856 -0.047898892
000070 9d 27 11 bd 1b e2 19 bd 22 75 05 3d 59 a5 31 bd
       -0.03543817 -0.037569147 0.03258241 -0.04337058
000080 e2 3b a1 bc 93 38 39 bd 54 72 21 3d b0 03 5c 3b
       -0.019681875 -0.04521997 0.039415672 0.0033571534
000090 0e 96 47 3d cd 0a e0 3d c2 c7 a1 bc 94 a4 7b bd
       0.048727088 0.1093956 -0.019748572 -0.06143625
0000a0 e2 49 fb 3d cb 9b e5 3d 75 b7 cd bc e2 94 8b bd
       0.122699514 0.11211356 -0.025111893 -0.068155065
0000b0 3c 6b 15 bd 9b de 4a bd cd ab 83 3d 95 74 81 3c
       -0.03647922 -0.0495287 0.06429253 0.015802661
0000c0 0e 66 45 3d b1 65 ca bd 64 fc 39 3d 9c a7 ba bd
       0.04819303 -0.09882677 0.045406714 -0.09114
0000d0 2c e5 96 3d f3 8e 65 3d e9 5d ec bc 04 e1 c3 bd
       0.0736793 0.05604453 -0.028853374 -0.09564403
0000e0 79 bb 61 bd 63 85 40 bd 7f 5d d3 bd 91 d0 e7 bc
       -0.05511043 -0.047002207 -0.10320567 -0.028297694
0000f0 a6 74 da 3a a9 3f d7 3d 6d 2e 3a bc 31 0a cc bd
       0.0016666844 0.10510189 -0.011363608 -0.09962881
000100 65 36 93 bd 58 6b d7 3d 81 9f 78 3d 3f 88 97 bd
       -0.07188109 0.10518521 0.06069899 -0.07399034
000110 8f 73 e7 bd 06 4f e5 3d c5 3a cf bd ed 12 9c bd
       -0.11301338 0.11196713 -0.10118631 -0.07620797
000120 94 fa 7e 3b 15 ed 6e bc 0d 4c a2 3d ef d7 a3 3d
       0.003890668 -0.014582892 0.07924662 0.080001704
000130 d5 4c a5 bb db 23 fb bb e6 91 cf 3c b9 c2 dc bc
       -0.0050445595 -0.0076641864 0.025338124 -0.02694832
000140 c4 02 3b 3b 9a 4a c8 3d 4b 9e b2 3d 94 17 e1 bd
       0.0028535584 0.09779854 0.08721598 -0.10990825
000150 aa c4 aa bd f5 77 cc 3c df 7e 7b 3d 47 e1 17 3c
       -0.08338292 0.024959544 0.06140029 0.009270019
000160 59 01 aa 3c db d5 a3 bd c9 03 e3 3d cb ba 7e bd
       0.020752596 -0.07999774 0.11084706 -0.06218986
000170 96 32 ca bd b2 e6 07 3d 6d a6 ed bb 5e 2f a2 3d
       -0.0987293 0.033178993 -0.0072525055 0.07919191
000180 87 bd c7 bd 25 ef 96 bd 73 da c2 3c 35 be ba 3d
       -0.09752946 -0.07369832 0.023785805 0.0911831
000190 ef dd 1a bd d0 b7 78 3d 6a 45 a0 bc d1 09 bb bd
       -0.03780931 0.060722172 -0.01956435 -0.09132732
0001a0 53 7c 4a bc 80 c2 c5 bc 82 44 56 bd 1e e4 72 bd
       -0.012358743 -0.024140596 -0.052311428 -0.05929958
0001b0 d7 67 07 3d 6c 26 e1 ba 86 57 a1 3d cd 00 f1 bc
       0.033058014 -0.0017177588 0.07878022 -0.029419327
0001c0 10 86 a9 bd 00 be d4 bd 31 e5 ce bd 77 eb df 3d
       -0.082775235 -0.10387802 -0.101023085 0.10933583
0001d0 ba 4a 33 bd 6d 7f be bd b8 04 31 bd 58 10 01 3d
       -0.043772437 -0.09301648 -0.04321739 0.031509727
0001e0 30 2e 2b bc 94 8e a2 bd f8 d6 70 3c 41 5a cc bd
       -0.010448024 -0.07937351 0.01469969 -0.09978152
0001f0 c1 1d f0 bc 4c a2 e3 bb bc e0 8d bc 55 60 83 bd
       -0.029311063 -0.0069468375 -0.017319076 -0.06414858
000200 33 3c 4c bd 09 75 9d bd 52 f7 84 3d 89 b8 e3 bd
       -0.049862098 -0.07688338 0.06492485 -0.11119182
000210 0f 64 91 3c 68 42 42 bc de 5f d7 3d 8f 8c f5 bd
       0.017747907 -0.011856653 0.10516332 -0.119897
000220 60 48 f8 3d 27 9e 37 3c 8d 2b c5 bc be 21 8b 3d
       0.121231794 0.01120714 -0.024068618 0.06793545
000230 e8 aa b7 bd b9 d0 25 3d 5f 9f fb bb cb 14 f3 bc
       -0.08968145 0.040482257 -0.0076789106 -0.029673
000240 05 62 06 bc 99 46 99 3d a7 b7 b9 bd a2 1b 8c 3d
       -0.008202081 0.074841686 -0.09068232 0.06841208
000250 57 99 25 bb 70 94 ed bd 26 7a f2 3d fd d5 ba bc
       -0.00252684 -0.11600578 0.11839704 -0.022807116
000260 74 64 53 3d 41 62 da 3c 74 3b a2 bd 96 cb c6 3c
       0.05160947 0.02665818 -0.07921496 0.024267
000270 f3 81 16 3d f2 6e 06 bd 54 59 67 bd 24 d3 b0 3d
       0.036745023 -0.03282065 -0.056481674 0.08634022
000280 9c cf 0d 3d 89 74 af 3b 86 bb 8d bc 90 a8 95 bd
       0.03462182 0.0053544682 -0.017301332 -0.07307541
000290 c7 fd d6 bc 93 0c a2 3d ed be 5f bd 04 e2 f2 bc
       -0.026244057 0.079125546 -0.05462544 -0.029648788
0002a0 ef 83 fd 3c 56 20 d9 bd c6 03 cd bd aa cf 29 bc
       0.0309467 -0.10601871 -0.10010485 -0.010364452
0002b0 30 c1 15 3d 61 f4 32 bd 69 2a a0 bd 0e 00 49 3c
       0.03656119 -0.04369009 -0.07820589 0.012268079
0002c0 0d 29 10 3d ba b6 92 bd c9 4c f0 bd d6 73 60 3d
       0.0351954 -0.071637586 -0.117333956 0.05479797
0002d0 73 4e dc bd f2 7d c3 3d e3 dc f1 bc 64 6c cc 3d
       -0.107571505 0.095455065 -0.029524272 0.09981611
0002e0 95 0e ce bc 24 14 b3 3d 2b 90 ac bd 35 28 b4 3d
       -0.025153438 0.08744076 -0.08425935 0.087967314
0002f0 98 2b d1 3d cf 1d 68 3d ca ef a3 bd e1 72 ce 3d
       0.10213393 0.056669053 -0.080047205 0.10080505
000300 55 95 39 3d d7 05 00 3e 91 13 1d 3c 80 37 cb 3d
       0.04530843 0.12502228 0.0095871845 0.09922695
000310 cb a6 61 bc ac fa f8 3d c0 dd 36 3d 6c e6 b2 bd
       -0.013772677 0.12157187 0.04464507 -0.08735356
000320 1e fb b2 3d 1d 62 69 3d 6d 50 01 bc 82 4a db bc
       0.08739303 0.056978334 -0.00789271 -0.026768927
000330 61 29 9f bd ad 8d 12 bd 1b 58 8a bd 9f 7e a7 bd
       -0.07771564 -0.035779644 -0.06755086 -0.08178448
000340 26 33 94 bc 5e a7 c0 bd 38 66 87 3d 4d 88 d1 3d
       -0.018090796 -0.09406923 0.066112936 0.102310754
000350 96 9d ec bd 08 3f 95 bd f9 97 d2 bd 41 89 ba bb
       -0.11553495 -0.07287413 -0.10282893 -0.0056926315
000360 a9 1c a1 bd 44 04 a3 bd 38 3e 82 3c e7 17 90 3c
       -0.078667946 -0.07959798 0.015898809 0.017589523
000370 23 8c ca 3d 3d 80 db bd e9 82 4d bc 0f 74 8e 3d
       0.0989001 -0.10717819 -0.012543418 0.0695573
000380 1b 97 1f bd 24 b6 a2 3d 1a ed db bd 30 25 75 3c
       -0.038962465 0.07944897 -0.10738583 0.0149624795
000390 a7 dc 07 bd e3 1e 97 bc 68 2f df bc 84 ad 33 bc
       -0.033169415 -0.018447345 -0.027244285 -0.010966662
0003a0 94 cd e5 3c d0 11 ca bd fe 2d 63 3c 57 98 9a bd
       0.028052129 -0.09866679 0.013865946 -0.07548588
0003b0 8b 86 de bc 30 20 ef 3d 8a e7 4e 3d f1 b9 e7 3b
       -0.027163764 0.11676061 0.05051378 0.0070717265
0003c0 ab fd 89 3d 1d a2 95 bd d3 20 80 bc 1b 28 13 bd
       0.067378365 -0.07306311 -0.015640652 -0.03592692
0003d0 5d e8 85 3d 34 03 08 3d 77 0b 7d bd 25 f6 e6 3d
       0.065384604 0.03320618 -0.06177851 0.11277417
0003e0 16 a0 9a 3c 75 db 21 3d 7a d1 9d bd be 93 e8 3b
       0.018875163 0.03951593 -0.0770597 0.0070976904
0003f0 9b 84 d0 bd 66 2c 41 3d d0 71 75 3d 4c 36 dc bc
       -0.101815425 0.047161482 0.059922993 -0.02688136

backbone.model.1.conv.2.bn.weight f4 [24]
000000 2d 9b 79 3f a1 a7 79 3f 59 88 79 3f 66 ac 79 3f
       0.97502404 0.97521406 0.97473675 0.97528684
000010 1e 8f 79 3f ec 43 79 3f c1 b5 79 3f c4 d9 79 3f
       0.97484004 0.97369266 0.9754296 0.9759791
000020 b6 13 7a 3f e2 38 7a 3f 43 02 7a 3f 05 cf 79 3f
       0.97686327 0.97743046 0.976597 0.9758151
000030 cb 5f 7a 3f be e4 79 3f 81 df 79 3f 77 4e 7a 3f
       0.9780242 0.9761466 0.97606665 0.9777598
000040 7f 97 79 3f 98 f5 79 3f 5c 8f 79 3f 16 a8 79 3f
       0.9749679 0.9764037 0.97484374 0.97522104
000050 ff ac 79 3f 6f 80 79 3f e8 59 7a 3f 6d fb 7a 3f
       0.97529596 0.974616 0.97793436 0.98039895

backbone.model.1.conv.2.bn.bias f4 [24]
000000 a5 cd f4 b9 6a 5d b5 3a c8 aa 7f b9 fa e4 28 bb
       -0.00046692524 0.0013837044 -0.00024382316 -0.0025771246
000010 44 98 80 3b c6 73 ee ba 82 c6 45 3b f9 01 cf 39
       0.0039244015 -0.0018192462 0.0030178134 0.00039483586
000020 ff 91 23 bb 17 f1 d2 3b 17 45 13 bb 59 8f 1d bb
       -0.0024958847 0.0064374316 -0.00224716 -0.002404174
000030 3b b2 9c 3c fd 26 f2 3a 4b 2a 15 ba 64 74 78 bb
       0.019127956 0.0018474754 -0.0005690201 -0.003791117
000040 1d 5e a4 bb a8 1d d6 ba d8 fd a4 3b 68 73 76 bb
       -0.005016102 -0.0016335743 0.0050351433 -0.0037605409
000050 e8 02 86 bb 5e d9 1c bb 9a 32 b0 3a 28 51 11 3c
       -0.004089702 -0.0023933272 0.0013442815 0.008869447

backbone.model.1.conv.2.bn.running_mean f4 [24]
000000 29 d3 05 be a6 a4 1a be dc 9f aa bc 9c a1 50 bd
       -0.13068832 -0.15101871 -0.02082818 -0.050935373
000010 ca c3 e4 bd f2 4c 10 3c c8 a3 ee 3d 65 d8 a8 bc
       -0.11170156 0.008807408 0.116523325 -0.020610997
000020 7f 4a 36 3e 01 6a 41 bb 6d 83 22 be 84 86 00 3d
       0.17801856 -0.0029512646 -0.15870447 0.031378284
000030 8d 01 ee bd d7 9f 88 3d d5 c7 ff 3d 9f d0 92 3d
       -0.116213895 0.06671112 0.12489287 0.071686976
000040 0b 16 91 3d d8 9a 0b bd 40 09 07 3d 5d 44 58 3d
       0.070842825 -0.034083217 0.032967806 0.05279957
000050 2d 50 fa bc d3 3a 0f be 06 28 55 3d 8e ed b4 3b
       -0.030555809 -0.13987283 0.052040122 0.005521483

backbone.model.1.conv.2.bn.running_var f4 [24]
000000 78 d0 86 3d 60 7d 89 3e 05 a6 ef 3d 6a a7 e5 3d
       0.06582731 0.26853466 0.117015876 0.11213572
000010 8d d0 58 3e 8c bf 2c 3e 82 7f 06 3e 4b 53 2a 3e
       0.21173306 0.16869944 0.13134578 0.16633336
000020 1f d8 85 3e a9 22 ee 3d 7c 6e bf 3d a3 cd 5c 3e
       0.2614145 0.11627705 0.09347245 0.21562819
000030 59 a8 ad 3d 98 3b 21 3e 0f b4 ec 3d df 71 0b 3e
       0.084793754 0.1574539 0.11557781 0.13617657
000040 41 65 c2 3d b5 79 b5 3d a2 54 d1 3d e4 26 d6 3d
       0.09491969 0.088611044 0.102212206 0.104566365
000050 e4 8b b6 3d 97 12 54 3e 70 63 1f 3e 21 8c 06 3e
       0.08913401 0.20710216 0.15565276 0.13139392

backbone.model.1.downsampling.conv.weight f4 [24, 16, 1, 1]
000000 93 8b 16 be c2 9d 17 be 89 ff 06 3d e2 4e 2c 3e
       -0.14701681 -0.14806274 0.03295854 0.16826966
000010 bc da 17 3e 03 10 42 3d 93 89 52 3e 8f b8 83 3c
       0.14829534 0.04737855 0.20560293 0.016079215
000020 12 29 4e be a1 f6 11 be 46 0d af bd 49 61 35 3e
       -0.20132855 -0.14254238 -0.085474536 0.17712893
000030 cd c8 b1 3c 96 75 64 3e 9a 01 57 be de c9 04 3e
       0.021702195 0.2231048 -0.20996705 0.12967631
000040 2c 6c 30 3e 70 8c 08 3e f3 a6 c0 3d 3f df 18 3e
       0.17228764 0.13334823 0.09406843 0.14928912
000050 f9 61 38 be c8 71 8b bc 3c ae c0 bc e5 2a 18 3e
       -0.18006124 -0.017022029 -0.023520581 0.14860113
000060 bc a0 b8 bc 04 76 82 bd 4b 84 07 be ea fb 6e bd
       -0.022537582 -0.06370166 -0.1323406 -0.058345713
000070 a3 4b b2 bc 58 ae 7d 3e e8 6e e8 3d 9c fd 35 3e
       -0.021764582 0.24773538 0.11349279 0.17772526
000080 35 b3 8e b9 7c 4a d5 bd 1c ab 44 3d e8 ef 7f 3c
       -0.0002721787 -0.104145974 0.048014745 0.015621163
000090 2a a5 5a 3e d4 13 1f 3e 19 e6 f3 bd 7c f0 ad bc
       0.21352068 0.15534908 -0.11909122 -0.021232836
0000a0 56 b1 a7 bd 24 5d 54 be 7d ea 0d be c8 d7 64 be
       -0.08188121 -0.20738655 -0.13858981 -0.22347939
0000b0 47 81 06 be aa 53 20 be 16 e9 61 be 0f b1 6c 3d
       -0.13135253 -0.15656915 -0.22061571 0.057786044
0000c0 cf 43 3c be a3 2e 6a 3e f6 6f e9 bd 3d aa 23 be
       -0.18385242 0.22869353 -0.11398308 -0.1598291
0000d0 16 db 45 3e 0b ff cf 3c dd 12 0a be e0 9b 30 be
       0.19321856 0.025390169 -0.13483758 -0.17246962
0000e0 d9 8a 08 3d 7b 59 86 bd bc 58 4f 3e 4e 3b b4 bd
       0.03333554 -0.06560036 0.20248693 -0.08800374
0000f0 e7 43 84 3c c5 e0 08 bd cb 86 9d bd a2 b6 30 be
       0.01614566 -0.033417482 -0.07691725 -0.17257169
000100 d1 4b fe 3d 78 da 6b 3d 16 6d 8a 3b 73 84 21 be
       0.124168046 0.057581395 0.00422443 -0.15773182
000110 e3 40 73 bd 03 f5 2a be 5f 06 21 3e 3c 77 2f 3e
       -0.059388053 -0.16695027 0.15725087 0.17135328
000120 ea 5d 29 be 78 ec 68 3d 12 db 74 bc 98 80 68 be
       -0.16539732 0.05686614 -0.014944809 -0.22705305
000130 b4 29 44 3e b7 59 ff bd 94 5f 10 be dc f6 64 be
       0.19156533 -0.124682836 -0.1409896 -0.22359794
000140 ae c4 72 3e aa 0e 1f 3e 48 0f 30 3d ab 27 4d 3e
       0.2370784 0.15532938 0.042983323 0.20034663
000150 80 5e 8c bc 52 ea 94 3d 5d ce 5d 3e b8 e7 d2 bd
       -0.017134905 0.072712556 0.21660753 -0.10298103
000160 be af 4e be 3c dc db bd 8c b0 42 be 65 a4 7b bd
       -0.20184228 -0.10735366 -0.1901266 -0.061436076
000170 28 0e 49 be ae a1 57 3e b7 e4 23 be 28 b1 24 3e
       -0.19634306 0.2105777 -0.16005217 0.16083205
000180 f5 0d 9d 3d 1a 95 68 3e 7a 38 3d 3e c3 5a 1c be
       0.07668678 0.22713128 0.18478575 -0.15268998
000190 fd 29 5c be 3c 65 1d be cc d9 2e bc 62 cd 29 be
       -0.21500392 -0.15370649 -0.010672044 -0.16582254
0001a0 23 03 48 3e ae de 92 3d e9 16 4f 3d 4c 42 4e 3d
       0.19532447 0.07171379 0.05055896 0.050356194
0001b0 b9 3d 3f be 52 cf 30 bd 16 07 19 3e 5f da f8 bd
       -0.18675889 -0.043166466 0.1494411 -0.12151026
0001c0 5e 8b 1a 3e 24 4a 78 bd b6 77 54 3e 13 b1 2d bd
       0.15092227 -0.06061758 0.20748791 -0.0424052
0001d0 2b 79 ff bc 9b be e3 bd 50 47 5e be f0 86 48 3d
       -0.031185707 -0.111203395 -0.21706891 0.04895681
0001e0 ce 60 5f 3e 0a cf 19 3d 94 f6 39 3e 80 4c 5f 3e
       0.21814272 0.037550963 0.18160468 0.21806526
0001f0 6d 78 a8 bb ea 79 e3 bd 08 99 18 be 45 7d 2a 3e
       -0.005141309 -0.11107238 -0.14902127 0.16649349
000200 c1 e2 7f 3d 92 99 29 3e c9 06 62 3e 96 1b aa 3d
       0.06247211 0.16562489 0.22072901 0.08306043
000210 0c 3f 5c 3d fb 31 b2 bc e1 b1 f8 bc 47 32 0f 3e
       0.053771064 -0.021752348 -0.030358257 0.13984023
000220 e9 99 49 3e 85 6e f8 3d 92 f5 24 bd 2f 42 1d be
       0.19687618 0.12130455 -0.040273257 -0.15357278
000230 c3 8d 6a 3e b2 f8 b9 bc 91 cb 01 3e 5d 53 5e 3e
       0.2290564 -0.022701595 0.1267531 0.21711488
000240 4e d2 16 be 3b 4b 73 be 33 97 2e 3d d3 83 3b 3e
       -0.14728662 -0.23759167 0.042624664 0.18312006
000250 d2 de 3a 3d cc 59 88 3d 51 52 28 be d6 11 61 be
       0.045622654 0.066577524 -0.16437651 -0.2197946
000260 81 90 1e 3e b0 b5 8a bd 5a 05 66 be a6 a1 d4 bd
       0.15484811 -0.067729354 -0.22462979 -0.103823945
000270 86 4e d0 3d e6 65 7c 3b b9 c4 a2 3d 69 c7 a0 bd
       0.10171227 0.0038512885 0.07947678 -0.078505345
000280 c9 40 43 be 4f 2b 49 bd 72 b0 57 3e b2 e1 ae 3d
       -0.19067682 -0.049113568 0.21063402 0.08539142
000290 ba 97 51 3e a5 ec 63 be 90 fb 66 3e 97 5f bf 3d
       0.20468035 -0.22258241 0.22556901 0.09344404
0002a0 ed fe 2a be 29 75 94 bd 99 69 46 3e 21 89 d7 3d
       -0.16698809 -0.07248909 0.1937622 0.10524202
0002b0 78 e1 19 be f8 c6 79 3e e7 52 21 be 30 bc 3d be
       -0.15027416 0.24392307 -0.15754281 -0.18528819
0002c0 9e 52 0c be 41 a3 55 bd 0e bc b6 3d d8 da 3a 3e
       -0.13703391 -0.052157644 0.08922587 0.18247545
0002d0 0f 23 04 3e 23 fa 58 3b 39 84 09 3e 31 a5 2f 3e
       0.12903999 0.0033108077 0.13429345 0.1715286
0002e0 81 2a 02 be 10 ac 71 be ab 60 f1 3c b9 39 33 3e
       -0.12711526 -0.23600793 0.02946504 0.17502488
0002f0 48 70 29 be 70 e8 9b 3c 4d d2 1f 3e 7d f2 c8 bd
       -0.16546738 0.019031733 0.15607567 -0.09811876
000300 f5 8f 8e 3b 8b 31 2d 3e e0 8d d2 3d 30 80 84 bd
       0.004350657 0.1691343 0.10280967 -0.06469762
000310 9f f5 d3 3d 10 b5 53 be 5f 2b 6d be ac 6d ea 3d
       0.10349583 -0.20674539 -0.23161076 0.114466995
000320 16 82 4f 3e 64 28 c3 bd 64 ce 47 be a2 37 cb bd
       0.20264468 -0.09529188 -0.19512326 -0.099227205
000330 f0 6b ee bd 21 27 e1 3d 5b d1 22 3e fc ef 5e 3e
       -0.11641681 0.10993791 0.15900175 0.21771234
000340 09 21 8c 3d 77 22 45 be 1c ab e4 bd 2e 10 f9 3d
       0.068422385 -0.19251429 -0.11165449 0.12161289
000350 04 4f e3 3c f0 37 19 3e bc f5 a7 3c 79 1d 1e 3e
       0.027747639 0.14962745 0.020502917 0.1544093
000360 5a 45 3e 3d fb bf 2f be 60 89 6b be 36 54 8f bd
       0.046452858 -0.17163078 -0.23001623 -0.06998484
000370 e9 ce 5c 3e a1 c1 2e be 78 91 35 be b7 78 07 be
       0.21563305 -0.17066051 -0.17731273 -0.13229643
000380 e1 01 28 be 9f c7 8f bd 3a 96 31 3e ae 79 bc 3d
       -0.16406967 -0.070204966 0.17342463 0.09202896
000390 22 87 a3 bd f5 99 41 3e 1f 2c f4 3c 82 55 aa 3c
       -0.07984759 0.18906386 0.029806195 0.020792726
0003a0 04 a2 0a be 75 53 d2 bd ad 2a 5d be c6 f4 02 3e
       -0.13538367 -0.102698244 -0.21598311 0.12788686
0003b0 b4 11 12 bd 63 53 2e be 20 9b 96 bc ab e2 19 be
       -0.035661414 -0.17023997 -0.018384516 -0.15027873
0003c0 0a f7 41 be bd ed ee bd 81 a3 ed bd f8 42 9d bc
       -0.18941894 -0.11666439 -0.116034515 -0.019196972
0003d0 c1 08 ec bd 5a e9 61 3d 0a e4 6c be 18 b1 56 3e
       -0.11525107 0.055154182 -0.23133865 0.20965993
0003e0 78 30 19 be 83 2e a6 3d 38 72 37 3e 42 73 d4 bd
       -0.14959896 0.0811434 0.17914665 -0.10373546
0003f0 8e ac 23 be 55 8a 4e bd 00 ea be bd c8 a9 6d 3e
       -0.15983793 -0.050424892 -0.09321976 0.23209298

backbone.model.1.downsampling.bn.weight f4 [24]
000000 c2 64 79 3f 09 21 7a 3f 27 a7 79 3f 31 2b 79 3f
       0.9741937 0.9770666 0.9752068 0.9733153
000010 0d 46 79 3f 4f 9f 79 3f 09 c0 79 3f 27 15 7a 3f
       0.97372514 0.9750871 0.9755865 0.97688526
000020 45 1f 7a 3f fd 2f 7a 3f 78 5c 7a 3f 99 95 79 3f
       0.97703964 0.97729474 0.97797346 0.9749389
000030 12 e3 7a 3f e6 34 79 3f 39 73 79 3f 8f 61 79 3f
       0.9800273 0.9734634 0.9744144 0.9741449
000040 10 c8 79 3f fa db 79 3f d3 90 79 3f 8e 85 79 3f
       0.97570896 0.9760128 0.9748661 0.97469413
000050 ce 50 79 3f 3f c8 79 3f 61 5e 7b 3f 84 ee 79 3f
       0.97388923 0.97571176 0.98190886 0.9762957
